Week08/DQNagent.pt (torch, 9747 bytes, 6 tensors)

weight f4 [32, 8]
0	0x3e8a6571	0.2703052
1	0x3e963f5b	0.2934521
2	0xbda9a1a4	-0.08282784
3	0x3ea64951	0.3247781
4	0xbd9ea5e0	-0.07746482
5	0x3d921cb0	0.07134378
6	0xbe3042a6	-0.17212924
7	0x3e549e7a	0.20763579
8	0x3e9f9389	0.31167248
9	0xbe84cd06	-0.2593767
10	0x3e9d5761	0.30730727
11	0x3d878490	0.06617081
12	0x3e85bd1b	0.2612084
13	0x3d441fd8	0.04788193
14	0x3e2e921a	0.17047921
15	0xbd4c7768	-0.049918562
16	0x3e8b8b95	0.2725493
17	0x3d560cd8	0.052258343
18	0xbe29039c	-0.16505283
19	0x3db890ec	0.09012017
20	0xbe26cdf2	-0.162895
21	0xbd29d448	-0.041462213
22	0xbe130b86	-0.14359865
23	0x3e702a7a	0.23453704
24	0xbe8ee42a	-0.2790845
25	0xbe26e750	-0.16299176
26	0xbdcc760c	-0.09983453
27	0xbe59af13	-0.21258192
28	0x3d08ae70	0.03336948
29	0xbeb2c9fd	-0.3491973
30	0x3ea37aef	0.31929728
31	0xbe99c52a	-0.30033237
32	0x3e8bc07b	0.27295288
33	0x3d710028	0.05883804
34	0xbdeb1c76	-0.11480038
35	0x3e5fb8c6	0.21847829
36	0x3d61b230	0.055101573
37	0x3e9241cb	0.2856582
38	0x3d1e4fd0	0.038650334
39	0xbde45ac6	-0.11150126
40	0x3dc28c38	0.09499401
41	0xbdc45ad8	-0.095876396
42	0x3e185de2	0.14879563
43	0x3ea19e39	0.31566027
44	0x3e5147aa	0.20437494
45	0xbe1e45fb	-0.15456383
46	0x3e50fdfe	0.2040939
47	0x3d818e70	0.06325996
48	0x3e37db1e	0.1795468
49	0xbe5caa16	-0.21549258
50	0xbeb3314c	-0.34998548
51	0xbe0be0a1	-0.13659908
52	0xbe8ad891	-0.27118352
53	0x3e94888d	0.2901043
54	0x3dd08e94	0.101834446
55	0x3e15f618	0.14644659
56	0x3de4ff60	0.111815214
57	0xbbc98940	-0.0061503947
58	0x3e8daacf	0.2766938
59	0xbe809de0	-0.2512045
60	0x3cb65cc0	0.022261024
61	0xbe771b1e	-0.24131438
62	0x3ddf454c	0.10901889
63	0xbdf95c02	-0.12175752
64	0x3dddde7c	0.10833451
65	0xbd96daf8	-0.07365984
66	0x3e9622cf	0.29323432
67	0xbe5694bd	-0.20955177
68	0xbe57eb4c	-0.21085852
69	0xbe57eea3	-0.21087126
70	0x3ea2d109	0.31800106
71	0x3df14cb0	0.11782205
72	0x3eae2f9d	0.340207
73	0xbe956416	-0.29177922
74	0xbeb38c7b	-0.35068116
75	0xbe8d9f7b	-0.27660736
76	0xbe738a1a	-0.2378315
77	0x3e12a3e4	0.14320332
78	0x3e01a326	0.12659892
79	0x3e9669d3	0.29377612
80	0xbe3af749	-0.18258394
81	0xbe76ce58	-0.24102151
82	0x3e4016fe	0.18758771
83	0xbe125670	-0.14290786
84	0x3e5bbada	0.21457997
85	0xbdabd2f4	-0.083898455
86	0x3e4f1a4e	0.20224878
87	0xbe8ca56f	-0.27469966
88	0xbe36b3e6	-0.17842063
89	0x3ddcc110	0.10779011
90	0x3d991350	0.07474387
91	0xbdb89c20	-0.090141535
92	0x3e57ccda	0.21074238
93	0x3e761e02	0.24034885
94	0xbe834539	-0.2563875
95	0xbe4147eb	-0.18875091
96	0x3ea5c0a5	0.3237354
97	0xbdf453c6	-0.11930041
98	0xbe005940	-0.12534046
99	0xbeaf2741	-0.34209636
100	0xbe4f542a	-0.2024695
101	0x3db4e090	0.088318944
102	0xbd3f2580	-0.046666622
103	0xbe83663f	-0.25663945
104	0x3c07e020	0.008293182
105	0xbe774d4a	-0.24150577
106	0xbe999382	-0.29995352
107	0xbe475c75	-0.19468863
108	0xbe9e6e28	-0.30943418
109	0xbe668618	-0.2251209
110	0x3eb4f2d3	0.3534151
111	0x3d88c294	0.06677738
112	0x3ddf21a8	0.10895091
113	0xbea8d57a	-0.3297537
114	0xbe6dc70b	-0.2322046
115	0xbdf1036c	-0.11768231
116	0x3d627318	0.055285543
117	0xbe9f4864	-0.31109917
118	0xbe1bfe22	-0.15233663
119	0xbe58bdbd	-0.2116613
120	0x3a806c00	0.0009797812
121	0xbe06b73b	-0.13155834
122	0xbcc8b3b0	-0.024499744
123	0xbe755402	-0.23957828
124	0xbe788068	-0.24267733
125	0xbe5336c9	-0.20626368
126	0xbdf7d98e	-0.12102042
127	0xbe8ee006	-0.2790529
128	0x3e97c77d	0.29644385
129	0xbd8fb40c	-0.07016763
130	0x3e9bbf9b	0.3041962
131	0x3de19c08	0.11016089
132	0xbe994960	-0.29938793
133	0x3e7a8b22	0.24467137
134	0xbdc739e4	-0.09727839
135	0xbe0ac763	-0.13552622
136	0xbe964241	-0.29347423
137	0xbeb3f659	-0.35148886
138	0x3dcf2a8c	0.10115537
139	0xbd9e2b94	-0.077231556
140	0x3e0cf334	0.1376465
141	0xbe948e53	-0.29014835
142	0x3e8664df	0.26248834
143	0xbe84e0bf	-0.25952718
144	0xbd7a0ec8	-0.061049253
145	0x3d973ce0	0.07384658
146	0x3e3ae732	0.18252257
147	0x3e922387	0.2854273
148	0x3ea4e6b7	0.3220727
149	0xbe8f88c4	-0.2803403
150	0x3db63a00	0.08897781
151	0xbe1bb8e4	-0.15207249
152	0xbd1eb220	-0.038744092
153	0xbe877dbe	-0.2646312
154	0x3ea4e20d	0.32203713
155	0xbe84dbf6	-0.25949067
156	0x3e417df6	0.18895707
157	0x3dfe782c	0.12425265
158	0x3deb4b10	0.114889264
159	0xbe43bc1e	-0.1911473
160	0x3ea489ad	0.32136288
161	0x3d9f1dc4	0.07769349
162	0x3d3a4a68	0.045481116
163	0xbe9f862f	-0.3115706
164	0x3e17faca	0.14841762
165	0xbd5940c8	-0.053040296
166	0xbe25dbd4	-0.16197139
167	0x3e9b7c67	0.3036835
168	0x3da16ea4	0.07882431
169	0xbe484eb5	-0.19561274
170	0xbe373deb	-0.17894714
171	0xbc8a50c0	-0.016884208
172	0x3e4a25fe	0.19741055
173	0xbdb906b8	-0.090344846
174	0xbe4e91f7	-0.20172869
175	0xbdf7f482	-0.12107183
176	0xbe873c28	-0.26413083
177	0x3e011d60	0.12608862
178	0x3e8c1dc3	0.27366456
179	0xbeaa6b3d	-0.3328494
180	0x3da82ae0	0.08211303
181	0x3e3b06b6	0.18264279
182	0x3d834be8	0.06410962
183	0xbe00ee4f	-0.12590908
184	0x3e3cf696	0.1845344
185	0x3e3e418e	0.18579695
186	0x3e07604a	0.13220325
187	0xbd7e78c8	-0.062126905
188	0xbdbfbc90	-0.09362137
189	0x3d1aecc8	0.03782347
190	0xbd7fd290	-0.062456667
191	0xbdd7c69c	-0.105359286
192	0x3e676aea	0.22599378
193	0x3e9b9165	0.30384365
194	0xbd0f5d10	-0.03500086
195	0xbda21e60	-0.0791595
196	0x3ba90e00	0.0051591396
197	0xbcacef00	-0.021110058
198	0x3dae138c	0.08499822
199	0x3dcae92c	0.09907755
200	0xbea4697b	-0.32111725
201	0xbe059b1e	-0.13047454
202	0x3e987115	0.29773775
203	0x3e0d08b2	0.13772848
204	0xbc900e30	-0.01758489
205	0xbe5a4673	-0.21315937
206	0xbe5d7f42	-0.21630576
207	0xbea226b0	-0.3167014
208	0xbdec05a2	-0.11524512
209	0x3df48620	0.11939645
210	0x3e66d7fa	0.22543326
211	0x3e2726fe	0.16323468
212	0xbea002ce	-0.3125214
213	0xbe59b76a	-0.21261373
214	0xbd648b00	-0.055796623
215	0x3eaf1be5	0.3420097
216	0x3d517c88	0.051144153
217	0xbdbb83cc	-0.09155998
218	0x3e15c7ea	0.14627042
219	0xbe09e4d3	-0.13466196
220	0xbe6a54e2	-0.22883943
221	0x3e841fab	0.2580541
222	0xbe249ea0	-0.16076136
223	0xbd912748	-0.070875704
224	0xbeb4142d	-0.35171643
225	0x3e724d46	0.2366229
226	0x3e892583	0.26786432
227	0x3e03f1c0	0.12885189
228	0xbe7c70b2	-0.24652365
229	0xbeb2a7bb	-0.34893593
230	0xbe930525	-0.28714862
231	0x3e86fc75	0.26364484
232	0x3e2dd11e	0.16974303
233	0x3e98541d	0.29751673
234	0x3e3da942	0.18521598
235	0x3db74220	0.08948159
236	0xbb62e680	-0.0034622252
237	0xbe89aa92	-0.26887947
238	0xbe9b17a3	-0.3029147
239	0xbea950f2	-0.3306957
240	0x3e143472	0.14473131
241	0xbe31bfd8	-0.17358339
242	0xbd91b8f0	-0.07115352
243	0xbe505aeb	-0.20347182
244	0xbd83f1a8	-0.06442577
245	0xbe7ed0c1	-0.24884321
246	0xbe6c8fce	-0.23101732
247	0x3df02f2c	0.11727747
248	0xbdd73174	-0.10507479
249	0x3e5f808a	0.21826378
250	0xbde84a54	-0.11342302
251	0xbe84ca34	-0.2593552
252	0xbd7f82c8	-0.062380582
253	0xbe2f7f4f	-0.17138408
254	0xbddd867e	-0.10816668
255	0xbeac5461	-0.33658126

bias f4 [32]
0	0x3e4a8eae	0.1978099
1	0xbe7c0d8f	-0.24614547
2	0x3e35f792	0.17770222
3	0x3e244996	0.16043696
4	0x3e81537d	0.2525901
5	0xbe8ad9ec	-0.27119386
6	0x3e823043	0.25427446
7	0xbe2b2784	-0.16714293
8	0x3e065766	0.13119277
9	0x3ea9ff77	0.33202717
10	0xbd4c3c68	-0.049862295
11	0xbb333000	-0.0027341843
12	0xbda6b468	-0.081398785
13	0xbe9725fa	-0.2952116
14	0x3e2dbe4e	0.16967127
15	0xbeb3b37d	-0.35097876
16	0x3e60c0ea	0.21948591
17	0x3e877177	0.26453754
18	0x3eab30ef	0.3343577
19	0xbdaacb88	-0.08339602
20	0xbe94bbab	-0.2904943
21	0x3da2cb64	0.0794895
22	0x3e480002	0.19531253
23	0xbeb42b8d	-0.35189477
24	0xbda45a8c	-0.08025083
25	0xbe5906ac	-0.21193951
26	0xbcfd5270	-0.030923098
27	0xbe323348	-0.17402375
28	0xbe13fd5b	-0.14452116
29	0xbde5dd62	-0.11223866
30	0xbeac05fe	-0.33598322
31	0x3e948719	0.2900932

weight f4 [32, 32]
0	0x3e17c111	0.14819743
1	0xbce32bb0	-0.027730793
2	0xbca4eb38	-0.020131692
3	0xbd93c154	-0.07214609
4	0xbe2378ca	-0.15964046
5	0xbe302870	-0.17202926
6	0x3d868e02	0.065700546
7	0xbdc6c6a4	-0.097058564
8	0xbde8bf0f	-0.113645665
9	0xbc61fab0	-0.013792679
10	0xbd712036	-0.05886861
11	0xbd6a410a	-0.057190932
12	0x3bba1fa0	0.0056800395
13	0xbd1995f8	-0.037496537
14	0xbd794f10	-0.060866416
15	0xbdad58a4	-0.084641725
16	0xbe135189	-0.14386572
17	0x3e17c937	0.14822851
18	0xbd90e21a	-0.070743755
19	0x3d3fdd9c	0.046842203
20	0xbd7b3aec	-0.06133549
21	0x3c6b5ba0	0.014365107
22	0x3e28c3b1	0.164809
23	0x3da6cca6	0.08144502
24	0xbe1cdf0d	-0.15319462
25	0x3d8fb1b4	0.07016316
26	0x3e2bd4d1	0.16780402
27	0x3d3e7e20	0.046507
28	0x3df2b83a	0.11851545
29	0x3e3276f7	0.17428194
30	0xbcdde638	-0.027087316
31	0x3d164914	0.036690786
32	0xbdfba12c	-0.122866005
33	0xbd15373c	-0.03642963
34	0x3e060f5b	0.13091795
35	0x3db998fe	0.09062384
36	0xbde51816	-0.11186235
37	0xbe11281d	-0.14175458
38	0xbdf76772	-0.120802775
39	0xbe32a4d9	-0.17445697
40	0xbe0bae7c	-0.1364078
41	0xbd330ffc	-0.043716416
42	0x3df454e6	0.119302556
43	0x3cf26538	0.02958928
44	0xbe09af2e	-0.13445732
45	0xbe1137d2	-0.1418145
46	0x3db41af2	0.08794202
47	0xbe06a650	-0.1314938
48	0xbcb24ec0	-0.021766067
49	0x3dadac12	0.084800854
50	0xbda78e4d	-0.081814386
51	0xbc9de818	-0.01927571
52	0xbc7c1b90	-0.015387431
53	0xbd2b4dfc	-0.04182242
54	0xbdb790b4	-0.08963147
55	0xbe215e1a	-0.15758553
56	0xbe125408	-0.14289868
57	0xbdc1db9b	-0.094657145
58	0x3e2ed5d7	0.17073761
59	0xbdaedeb8	-0.08538574
60	0xbdf31e7d	-0.118710496
61	0x3d2f831c	0.042849645
62	0x3d47902c	0.048721477
63	0x3dc65d52	0.09685768
64	0x3e0998b3	0.13437156
65	0x3dc99c26	0.09844236
66	0xbe337b19	-0.17527427
67	0x3c806f50	0.015678078
68	0x3ddb4e5a	0.10708304
69	0xbc85d8a8	-0.016338661
70	0xbdd55783	-0.10417082
71	0x3e2c92ad	0.16852827
72	0xbd87699c	-0.0661194
73	0xbdce1fee	-0.10064684
74	0xbe2332eb	-0.15937392
75	0x3c015f90	0.007896319
76	0x3da06e6a	0.0783356
77	0x3d2048a8	0.03913179
78	0x3d0f2fa4	0.034957543
79	0xbe094865	-0.13406523
80	0xbe290d39	-0.1650895
81	0x3b4c0240	0.003112927
82	0x3e250f43	0.16119103
83	0x3dd0de2a	0.101986244
84	0xbdd2ca94	-0.10292545
85	0xbcbbfba0	-0.022947133
86	0xbe0571c9	-0.13031687
87	0xbdaea7eb	-0.085281216
88	0x3d032114	0.032013968
89	0x3dc524de	0.096261725
90	0x3e15f36b	0.14643638
91	0xbe2631e8	-0.16229975
92	0x3df21086	0.11819558
93	0xbdff57d0	-0.12467921
94	0x3d879256	0.06619708
95	0x3e192fcf	0.14959644
96	0x3b22af40	0.0024823695
97	0x3e24b169	0.16083302
98	0xbe1a3ce0	-0.15062284
99	0xbd8a48b4	-0.06752148
100	0x3dd328fe	0.10310553
101	0xbd1dc0d0	-0.03851396
102	0xbd143804	-0.036186233
103	0xbd96e50b	-0.07367905
104	0x3df98e32	0.12185325
105	0x3db194c6	0.086709544
106	0x3d6807d8	0.056648105
107	0xbdcb73dc	-0.09934208
108	0xbe12f13f	-0.1434984
109	0x3c9ca220	0.019120276
110	0x3d568760	0.052375197
111	0xbda72855	-0.081619896
112	0xbd4a985c	-0.049461707
113	0x3df4825e	0.11938928
114	0x3c66b820	0.014081985
115	0x3c02ad40	0.007975876
116	0xbd323220	-0.043504834
117	0xbe23ede3	-0.16008715
118	0xbe2a346c	-0.1662156
119	0xbdad0f58	-0.08450192
120	0xbdb80831	-0.089859374
121	0x3d6196c0	0.055075407
122	0xbd52c964	-0.051461592
123	0xbd8da335	-0.06915895
124	0x3e2c96d7	0.16854416
125	0x3d7c3674	0.061575368
126	0x3e010c91	0.1260245
127	0xbdaf447d	-0.08557985
128	0xbd93e17b	-0.07220741
129	0x3d85105a	0.064972594
130	0xbdf137a5	-0.117781915
131	0xbdecaa88	-0.11555964
132	0xbc0be410	-0.008538261
133	0xbd846b65	-0.064657964
134	0xbe07b3dd	-0.13252206
135	0x3dd6bf1a	0.104856685
136	0x3e1191ab	0.14215724
137	0x3ceaeca8	0.0286773
138	0xbcfc2498	-0.030779168
139	0xbe27ac5f	-0.16374348
140	0xbd83de56	-0.064388916
141	0x3d3856f4	0.0450048
142	0x3daab662	0.08335568
143	0xbcb71278	-0.022347674
144	0xbd8f220d	-0.069889165
145	0x3dc9bcc6	0.09850459
146	0xbe1029eb	-0.1407849
147	0x3de4d0a2	0.11172606
148	0xbd8c7464	-0.06858137
149	0x3b315100	0.0027056336
150	0xbd0f16d4	-0.03493388
151	0x3caf92a0	0.021432221
152	0xbd5ad0a6	-0.05342164
153	0x3e039fc1	0.1285391
154	0xbb969780	-0.004595697
155	0x3e0d4db9	0.1379918
156	0x3e2e0beb	0.16996734
157	0xbdb061c9	-0.08612401
158	0xbe040e25	-0.1289602
159	0x3e113b6f	0.14182828
160	0x3e0dd969	0.13852467
161	0xbe0a3782	-0.13497737
162	0xbc5fe4f0	-0.013665423
163	0xbe328207	-0.17432414
164	0xbe142ea9	-0.14470924
165	0x3d0bd9a4	0.034143105
166	0x3d40a130	0.04702872
167	0x3d197d9c	0.037473306
168	0xbd45117c	-0.048112378
169	0x3e270121	0.16309024
170	0x3ccf0de0	0.02527517
171	0xbdd5a22e	-0.10431324
172	0xbc23f8a0	-0.010008007
173	0x3d2de23c	0.042452082
174	0x3d7d910c	0.061905906
175	0xbdfffd98	-0.12499541
176	0x3d87b036	0.066254064
177	0xbdb8f57b	-0.09031197
178	0xbe166a91	-0.1468909
179	0xbdc5bf8b	-0.096556745
180	0x3e2e93a5	0.1704851
181	0x3e1abeed	0.15111895
182	0x3e221999	0.15830077
183	0x3dd48552	0.10376991
184	0x3e08c03f	0.13354586
185	0xbcc1d5c8	-0.02366151
186	0xbdc7342a	-0.097267464
187	0x3db4e51e	0.08832763
188	0xbdbb9a29	-0.09160263
189	0xbdf453d9	-0.11930055
190	0xbd6738f8	-0.056450814
191	0x3d17f450	0.03709823
192	0x3dba6052	0.09100403
193	0xbd8c9e7c	-0.06866166
194	0xbdd51571	-0.1040448
195	0x3cc35898	0.023845956
196	0xbdd565ca	-0.10419805
197	0xbdebb59c	-0.115092486
198	0x3dbcb69e	0.09214519
199	0xbcf34488	-0.029695764
200	0x3e2569a9	0.16153587
201	0x3e3017ab	0.17196529
202	0x3d589354	0.052874878
203	0x3d793260	0.060839057
204	0x3d26be44	0.040708795
205	0x3b356f40	0.0027684718
206	0xbc52a7e0	-0.012857407
207	0x3b1f3a80	0.0024296343
208	0x3d8731b8	0.0660128
209	0x3e284e77	0.16436182
210	0xbd3ba6b8	-0.045813292
211	0xbd990a1a	-0.0747263
212	0xbd2f5898	-0.0428091
213	0xbdaee8e0	-0.08540511
214	0x3cf63e08	0.030058876
215	0x3e071f21	0.13195468
216	0x3e0d8d93	0.13823538
217	0x3da6389e	0.081162676
218	0xbe0537c4	-0.13009554
219	0xbdc24ed1	-0.09487689
220	0xbd1f168c	-0.03883986
221	0xbd057704	-0.032584205
222	0x3c6e3700	0.01453948
223	0xbe262bac	-0.16227597
224	0x3d615d80	0.05502081
225	0xbe0a1838	-0.13485801
226	0xbde513fa	-0.11185451
227	0xbe167f0e	-0.14696905
228	0x3e1db9c7	0.154029
229	0xbe2b6a17	-0.16739689
230	0x3e088e13	0.13335447
231	0xbbc2bae0	-0.0059426874
232	0xbca86b30	-0.020558923
233	0x3de2728a	0.11057003
234	0xbc85d978	-0.016339049
235	0x3de30dd6	0.11086623
236	0x3e02e133	0.12781219
237	0xbe1d29ae	-0.15347931
238	0x3d8b4e82	0.068020836
239	0x3d08b0cc	0.03337173
240	0x3d1baf64	0.038009062
241	0x3cd36b10	0.025807887
242	0x3d460ebc	0.048353896
243	0xbdae2a30	-0.085041404
244	0xbcb94750	-0.022617012
245	0x3e2bfd77	0.16795908
246	0x3df33c4a	0.118767336
247	0xbbd99ea0	-0.006641224
248	0xbe2a4118	-0.16626394
249	0x3bfde0a0	0.0077477247
250	0xbdf689ec	-0.12038025
251	0x3e133411	0.1437533
252	0xbddbca03	-0.1073189
253	0xbc511e40	-0.01276356
254	0xbd20b424	-0.039234295
255	0x3d00da34	0.031458095

bias f4 [32]
0	0x3d54586c	0.05184214
1	0xbd2486b8	-0.04016754
2	0x3e229455	0.15876897
3	0xbd89c482	-0.06726934
4	0xbd52406c	-0.05133097
5	0x3c45bf20	0.0120694935
6	0xbe09d90b	-0.13461702
7	0x3c9d9598	0.01923637
8	0xbdf5a266	-0.11993866
9	0x3c94e670	0.018176287
10	0x3c8abe80	0.01693654
11	0x3cc87460	0.024469554
12	0xbe18a71e	-0.149075
13	0xbe2bede8	-0.16789973
14	0x3da6948e	0.08133803
15	0x3e1b3dcf	0.15160297
16	0xbe20a1ae	-0.15686676
17	0x3d8618d8	0.06547707
18	0xbe054092	-0.13012913
19	0x3c3592d0	0.011082366
20	0x3e2869a9	0.16446556
21	0x3e095323	0.1341062
22	0xbe0459b6	-0.12924847
23	0x3ddff26a	0.10934909
24	0x3dbd195a	0.09233351
25	0xb98e2a00	-0.00027115643
26	0x3e2f5bb7	0.1712483
27	0xbd8fcaf3	-0.07021131
28	0xbd288118	-0.04113874
29	0xbdb6fabe	-0.08934544
30	0x3cd06288	0.025437608
31	0x3d3fb9e0	0.046808124

weight f4 [4, 32]
0	0x3c66c750	0.014085606
1	0xbdcbb246	-0.09946112
2	0xbda2fa48	-0.079578936
3	0x3d764bf4	0.06013103
4	0xbe1eb8f8	-0.15500247
5	0xbce18718	-0.027530238
6	0xbb8050e0	-0.003915891
7	0xbd92af5c	-0.071623534
8	0x3d83c09e	0.06433223
9	0x3c3aad90	0.01139392
10	0x3dfe2cae	0.12410866
11	0xbc809ce0	-0.015699804
12	0xbde47f1c	-0.11157057
13	0x3dffcc8e	0.124901876
14	0x3cca3ba8	0.02468665
15	0xbd4f5fdc	-0.050628528
16	0xbdee9ee6	-0.11651401
17	0x3d29b738	0.041434497
18	0xbe2ca5cc	-0.16860121
19	0x3d3eb4b4	0.04655905
20	0x3db30212	0.08740629
21	0xbe1eca4e	-0.1550686
22	0xbded0448	-0.11573082
23	0xbe0223b4	-0.12708932
24	0x3e1825df	0.14858197
25	0x3e19e367	0.15028153
26	0x3c354fc0	0.011066377
27	0x3e29f127	0.16595899
28	0xbd720fda	-0.05909715
29	0xbe2fbcd3	-0.17161874
30	0x3d7ceaa0	0.061747193
31	0x3d804248	0.06262642
32	0x3e3177d9	0.17330875
33	0xb856a000	-5.1170588e-05
34	0x3e0abb87	0.13548099
35	0x3dddeaa6	0.10835771
36	0x3e030423	0.12794547
37	0xbe33a19d	-0.1754212
38	0x3e150fd3	0.14556818
39	0xbe1a4f7a	-0.1506938
40	0x3e22492d	0.15848227
41	0xbbf00cc0	-0.0073257387
42	0xbe206c24	-0.15666252
43	0x3d495c54	0.049160317
44	0xbd136234	-0.035982326
45	0xbe229722	-0.15877965
46	0xbd8340bb	-0.06408831
47	0x3c954ff0	0.018226594
48	0x3e0cfc7d	0.13768192
49	0xbd5e9a54	-0.054346398
50	0x3dd70a12	0.10499968
51	0x3cb559a8	0.022137478
52	0x3bc341c0	0.0059587657
53	0x3d0a8c70	0.033825338
54	0xbded983b	-0.11601301
55	0xbe167684	-0.14693648
56	0xbd638374	-0.055545285
57	0xbe28af00	-0.16473007
58	0xbda8d641	-0.08243991
59	0x3c053f40	0.008132756
60	0xbdee7128	-0.116426766
61	0xbd962c15	-0.07332627
62	0xbd021b5c	-0.031764373
63	0xbca6d510	-0.020365268
64	0xbdc7d9c3	-0.097583316
65	0x3c0b2bb0	0.008494303
66	0xbccb4380	-0.02481246
67	0x3d4f153c	0.05055736
68	0x3c02d1a0	0.007984549
69	0xbdb4ca89	-0.08827693
70	0xbd7949c8	-0.06086138
71	0xbb058740	-0.0020374805
72	0xbde1e824	-0.110306054
73	0x3c62bcd0	0.013838962
74	0xbc4c7f00	-0.012481451
75	0x3d8c7696	0.06858556
76	0x3d2b5d40	0.041836977
77	0x3e0778cd	0.13229676
78	0xbbbef4c0	-0.0058275163
79	0xbe05c192	-0.13062122
80	0x3da1d5a2	0.07902075
81	0xbdf4adf0	-0.119472384
82	0xbcc70d60	-0.02429837
83	0xbd6a754c	-0.05724077
84	0xbd895fa2	-0.06707694
85	0xbd85f2d0	-0.065404534
86	0x3e2657a7	0.16244374
87	0x3dcf4062	0.10119702
88	0x3d48ab3c	0.048991427
89	0x3e29f825	0.16598566
90	0xbe240b30	-0.16019893
91	0x3ce9af68	0.028526023
92	0x3de7c4c2	0.113168254
93	0x3df07fa6	0.11743097
94	0xbe10109e	-0.14068839
95	0x3d80d886	0.062912986
96	0xbdce3f93	-0.100707196
97	0xbbe25700	-0.006907344
98	0xbd1717e8	-0.036888033
99	0xbe17250c	-0.14760226
100	0xbe2cad4d	-0.16862984
101	0xbdee2f3b	-0.11630102
102	0x3da44852	0.080216065
103	0x3da59bfe	0.08086394
104	0xbe1d71ad	-0.15375395
105	0xbd87f5f9	-0.066387124
106	0x3b3d3d00	0.002887547
107	0xbe1c8193	-0.15283804
108	0x3dcbfe0a	0.099605635
109	0x3e23f47f	0.16011237
110	0x3d000fc4	0.031265035
111	0xbe068003	-0.1313477
112	0x3d28d850	0.041221917
113	0x3d836cca	0.06417234
114	0x3e0f56c3	0.1399794
115	0xbdc0a140	-0.09405756
116	0xbe222d4f	-0.15837596
117	0x3d9f0fda	0.07766695
118	0x3c345050	0.011005476
119	0xbd6bec6c	-0.057598516
120	0xbd97b3c9	-0.07407338
121	0xbdbaac41	-0.09114886
122	0x3e1288db	0.14310019
123	0xbcf9dd00	-0.030500889
124	0x3e028d6b	0.12749259
125	0x3e21963b	0.15779965
126	0x3cb77250	0.022393376
127	0x3d1a3dc0	0.037656546

bias f4 [4]
0	0xbc4540a0	-0.012039334
1	0x3df8a75a	0.12141295
2	0xbe231d44	-0.15929133
3	0x3d8ffa04	0.070301086
