Week08/Practical08_Exercise.pt (torch, 35080 bytes, 24 tensors)

weight f4 [32, 8]
0.30108142 0.291155 -0.069667384 0.23938689 -0.15243113 0.02512917 0.008972891 0.23520453
0.4700691 -0.59246916 0.36428526 0.07620884 0.10414885 0.12560284 0.20220435 -0.1643125
0.28040257 0.096245006 -0.18465085 0.104691826 -0.19738802 -0.0883216 -0.3356596 0.21431682
-0.23530301 -0.10747935 -0.027546523 -0.20860246 0.0764598 -0.29335013 0.08211937 -0.46100578
0.31105343 -0.083546996 -0.0071330233 0.22076099 -0.034539565 0.33701605 0.03953135 -0.17776215
0.052593958 -0.14104179 0.10381291 0.35440844 0.24620605 -0.115756355 0.16220208 0.03858618
0.24303465 -0.2119069 -0.26782542 -0.0731425 -0.22245616 0.3483654 -0.030356035 0.21504407
0.04766912 0.00796322 0.19489148 -0.3018959 0.18694185 -0.23593225 -0.04987881 -0.36107147
-0.06842233 -0.16037007 0.21799996 -0.09392057 -0.089206405 -0.09864326 0.17728135 0.32612932
0.42080748 -0.2614871 -0.38211226 -0.1946567 -0.17690738 0.17077887 0.116573386 0.47523755
-0.2370559 -0.4101462 0.24960345 -0.0846025 0.31771484 -0.055653017 0.16386035 0.015451172
-0.18232119 0.07664144 0.12501739 -0.08300966 0.25539905 0.25598973 -0.5385633 -0.2453032
0.19427471 -0.107858226 -0.151133 -0.31400344 -0.12383333 0.1132086 -0.31636587 -0.4109551
0.21723573 -1.1341798 -0.19197908 -0.26136348 -0.25683653 -0.3307107 0.50730556 0.28631157
0.14808547 -0.24294688 -0.17324044 -0.018880976 -0.057189345 -0.2776653 -0.113857634 -0.37024504
0.15078667 -0.995735 0.06918581 -0.2599644 -0.15426347 -0.14615767 -0.588099 -0.2790529
0.15614519 -0.1101077 0.22209097 0.3086464 -0.14167398 0.38603213 -0.1504219 0.10806529
-0.20485297 -0.7886949 0.092778884 -0.094081126 0.23231566 -0.21022974 0.25902373 -0.3450958
-0.22524218 0.13562758 0.09640667 0.28453863 0.4133198 -0.19930702 0.0010877933 -0.04769718
-0.08721436 -0.16454147 0.2767473 -0.2965677 0.2790399 0.058131482 -0.16560894 -0.19179097
0.32813177 0.06485646 0.001574511 -0.2716696 0.216351 0.03123915 -0.06111674 0.37706277
0.023266817 -0.40106717 -0.20053986 0.11255681 0.11233853 -0.22160886 0.24812137 -0.11980244
-0.27843252 0.030934542 0.2682584 -0.27728373 0.077787966 0.22681215 0.03910259 -0.044825364
0.05566936 0.23968899 0.052857067 0.13802186 -0.068530224 0.12923978 -0.0412135 -0.105359286
0.14646499 0.27804744 -0.009328117 -0.10997263 0.04016873 -0.020900642 0.088839486 -0.0552024
-0.41935658 -0.24124195 0.18565342 0.21433368 0.009473186 -0.15954067 -0.32043907 -0.3167014
-0.059999935 0.11644926 0.29702827 0.12474802 -0.2948329 -0.11608018 -0.14754142 0.35596344
0.033536434 -0.8098373 0.16232365 -0.29948038 -0.2105203 0.61139977 -0.09200322 -0.10609866
-0.0012289186 0.20982128 0.4374105 0.045059945 -0.3684581 -0.43840417 -0.118436985 0.06377426
0.20907827 0.25297177 0.10087137 0.013182786 -0.007288895 -0.28653964 -0.2690563 -0.3306957
-0.049932513 -1.116148 -0.16185527 -0.24953377 -0.022125822 -0.46420252 -0.40453747 0.22250004
-0.126085 0.18096793 -0.11949919 -0.22478275 -0.032066472 -0.15417568 -0.33265147 -0.32779208
00000000: 5827 9a3e 4512 953e c6ad 8ebd d621 753e
00000010: e816 1cbe b0db cd3c 0803 133c 75d9 703e
00000020: e6ac f03e 0fac 17bf 9983 ba3e 6113 9c3d
00000030: fe4b d53d 089e 003e a80e 4f3e 8941 28be
00000040: ed90 8f3e 1a1c c53d 1d15 3dbe ab68 d63d
00000050: 1620 4abe f4e1 b4bd 93db abbe de75 5b3e
00000060: 46f3 70be 221e dcbd 3fa9 e1bc e29b 55be
00000070: f596 9c3d fd31 96be 332e a83d f308 ecbe
00000080: 6542 9f3e b01a abbd 23bc e9bb 2b0f 623e
00000090: 5c79 0dbd 5e8d ac3e a0eb 213d 4807 36be
000000a0: c36c 573d 426d 10be dd9b d43d 0675 b53e
000000b0: 701d 7c3e ab11 edbd 4d18 263e 8b0c 1e3d
000000c0: 13de 783e 1ffe 58be 6a20 89be bccb 95bd
000000d0: 8ccb 63be f35c b23e 38ad f8bc 8334 5c3e
000000e0: b240 433d 2a78 023c a291 473e 1992 9abe
000000f0: af6d 3f3e 3998 71be b94d 4cbd 5cde b8be
00000100: 0221 8cbd 0d38 24be 623b 5f3e 6e59 c0bd
00000110: d9b1 b6bd 7a05 cabd 3e89 353e 6cfa a63e
00000120: 1474 d73e a3e1 85be 38a4 c3be 1654 47be
00000130: 3527 35be a8e0 2e3e 07be ee3d 5652 f33e
00000140: c8be 72be affe d1be 0c98 7f3e 1344 adbd
00000150: 85ab a23e 6bf4 63bd 02cb 273e ea26 7d3c
00000160: 68b2 3abe 30f6 9c3d 8f04 003e f800 aabd
00000170: aac3 823e 1611 833e 49df 09bf c330 7bbe
00000180: f3ef 463e c6e4 dcbd 9cc2 1abe 0fc5 a0be
00000190: 549c fdbd e9d9 e73d b5fa a1be b568 d2be
000001a0: 0b73 5e3e ce2c 91bf 2a96 44be 6fd1 85be
000001b0: 1480 83be ea52 a9be c7de 013f 6e97 923e
000001c0: b8a3 173e 11c7 78be f165 31be 47ac 9abc
000001d0: 603f 6abd 252a 8ebe 312e e9bd c290 bdbe
000001e0: d267 1a3e 7de8 7ebf 4ab1 8d3d 0e1a 85be
000001f0: 3ef7 1dbe 5baa 15be a88d 16bf 06e0 8ebe
00000200: 86e4 1f3e 2580 e1bd d16b 633e e706 9e3e
00000210: fc12 11be 01a6 c53e 3308 1abe 5651 dd3d
00000220: fac4 51be e9e7 49bf db02 be3d 9bad c0bd
00000230: 28e4 6d3e 7746 57be c29e 843e 66b0 b0be
00000240: e3a5 66be f5e1 0a3e dc70 c53d 0caf 913e
00000250: a79e d33e 2417 4cbe 4994 8e3a 1e5e 43bd
00000260: 719d b2bd 8f7d 28be d2b1 8d3e b9d7 97be
00000270: 51de 8e3e 471b 6e3d 6495 29be da64 44be
00000280: e300 a83e 77d3 843d d35f ce3a 4718 8bbe
00000290: 1e8b 5d3e 3fe9 ff3c 8c55 7abd 5f0e c13e
000002a0: 0d9a be3c ad58 cdbe 525a 4dbe 2f84 e63d
000002b0: be11 e63d 6fed 62be 8713 7e3e fb5a f5bd
000002c0: b58e 8ebe 706a fd3c 2a59 893e 22f8 8dbe
000002d0: 4c4f 9f3d 7241 683e 0a2a 203d cd9a 37bd
000002e0: 8e05 643d 0871 753e a780 583d 9a55 0d3e
000002f0: 9359 8cbd 6f57 043e 7dcf 28bd 9cc6 d7bd
00000300: ebfa 153e 3c5c 8e3e f5d4 18bc 5539 e1bd
00000310: f787 243d d337 abbc 7af1 b53d e91b 62bd
00000320: e8b5 d6be 2108 77be ee1b 3e3e 4a7a 5b3e
00000330: 6c35 1b3c a15e 23be 9710 a4be b026 a2be
00000340: 7ec2 75bd f37c ee3d 1714 983e e47b ff3d
00000350: 56f4 96be 72bb edbd 1915 17be d740 b63e
00000360: 805d 093d 7f51 4fbf 2c38 263e 7e55 99be
00000370: a292 57be b284 1c3f 2f6c bcbd 414a d9bd
00000380: aa13 a1ba 64db 563e 45f4 df3e c790 383d
00000390: 8aa6 bcbe 8376 e0be 178f f2bd 149c 823d
000003a0: 9d18 563e 8485 813e a695 ce3d 9dfc 573c
000003b0: afd7 eebb 53b5 92be bfc1 89be f250 a9be
000003c0: 0986 4cbd f0dd 8ebf 63bd 25be c885 7fbe
000003d0: 3641 b5bc f4ab edbe 891f cfbe 0dd7 633e
000003e0: 6d1c 01be a84f 393e febb f4bd 732d 66be
000003f0: 2258 03bd 3be0 1dbe 4b51 aabe 5dd4 a7be

bias f4 [32]
0.26194614 -0.34799197 0.2058486 0.14582463 0.19525112 -0.31129503 0.2721382 -0.115843564
0.11915718 0.33065113 -0.13194409 0.029885609 -0.11357192 -0.28784552 0.06134484 -0.42195845
0.09055551 0.30369818 0.3247636 -0.019417403 -0.31211784 0.026300194 0.13808027 -0.42714053
-0.059255145 -0.26915112 0.038547277 -0.15313478 -0.14825618 -0.07549512 -0.318865 0.26846835
00000000: ce1d 863e 012c b2be fac9 523e 0d53 153e
00000010: e9ef 473e 1062 9fbe b355 8b3e 643f edbd
00000020: ae08 f43d 1b4b a93e 5a1c 07be aad2 f43c
00000030: 6598 e8bd 7d60 93be ba44 7b3d f00a d8be
00000040: 2b75 b93d 547e 9b3e 6a47 a63e 3f11 9fbc
00000050: e9cd 9fbe 8173 d73c ea64 0d3e 2ab2 dabe
00000060: 86b5 72bd 2dce 89be c0e3 1d3d 5dcf 1cbe
00000070: 78d0 17be 2f9d 9abd 4642 a3be af74 893e

weight f4 [32, 32]
0.067408636 0.04232851 -0.025752597 -0.09707438 -0.10288794 -0.14739724 0.07136839 0.0015640905
-0.1620113 -0.05504352 -0.035504702 -0.023900969 0.11071515 -0.027489971 0.045622382 0.08645226
-0.18787757 0.12791349 -0.13165206 0.11658296 0.12889309 0.2460989 0.12966265 0.2107413
-0.18141605 0.039735634 0.14277631 -0.27438673 0.18010385 0.12124831 -0.050518442 -0.004449502
-0.12385036 -0.03642963 0.120404206 0.0749564 -0.12004075 -0.14175458 -0.12885445 -0.18397368
-0.14907205 -0.0523078 0.10836075 0.020904118 -0.14377522 -0.13075052 0.07240369 -0.1314938
-0.021766067 0.0684799 -0.107801 -0.030062763 -0.028513882 -0.05789802 -0.09931047 -0.15758553
-0.14868477 -0.094657145 0.17073761 -0.08538574 -0.118710496 0.026684608 0.048721477 0.081660345
0.067268506 0.08164075 -0.19963376 -0.00075211696 0.10672528 -0.011598141 -0.11278829 0.20841019
-0.14966895 -0.14455901 -0.28677976 0.08297195 0.12346696 -0.13082378 0.08707191 -0.28373063
-0.14437161 -0.12421988 0.05673135 0.10092538 -0.025248088 0.14988653 -0.12634481 0.13907444
0.022532532 0.00024376177 0.07386385 -0.62479115 0.15355386 -0.15488663 -0.057275604 0.12929283
0.03791313 0.111366205 -0.1666771 -0.10993115 0.10310553 -0.06510364 -0.09044718 -0.1275726
0.07841573 0.057298943 0.004581795 -0.09934208 -0.17928503 -0.013172652 0.0139286835 -0.100338645
-0.09872396 0.07729022 -0.03326961 -0.07476987 -0.043504834 -0.19437905 -0.1767949 -0.08450192
-0.15752718 0.025641754 -0.089176394 -0.06915895 0.12698975 0.021081321 0.09155796 -0.12944348
-0.2238236 0.08515574 -0.23824169 -0.18509458 -0.13392265 -0.089504175 -0.12831709 0.045137376
0.08626194 0.010876311 -0.13996674 -0.21336824 -0.05002217 0.021480791 0.116958775 -0.0976641
-0.092055984 0.020048112 -0.34146187 0.075542346 -0.22294784 0.01266174 -0.07645485 -0.0020057145
-0.10792831 0.09846614 -0.055249117 0.081666335 0.13454188 -0.27173042 -0.16588147 0.045717474
0.07465624 -0.15478042 -0.03965018 -0.20982389 -0.20735921 0.012170927 0.036768377 0.06938137
0.04996257 0.1699156 0.19058402 -0.18843621 0.09709182 0.19168256 0.152121 -0.33672547
-0.048158295 -0.10703098 -0.1436732 0.0076850397 0.34549797 0.16871643 0.09665076 0.09053501
0.021186212 -0.02366151 -0.26609555 0.21501912 -0.37698352 -0.30275613 0.110578656 -0.005392549
0.08643125 0.054822676 -0.34043878 -0.06888959 0.016266769 -0.115092486 0.23212959 -0.35896772
-0.07510508 0.24248312 0.09858297 0.12426538 -0.19733267 -0.1479288 -0.12570348 0.0024296343
0.09379725 0.100650474 -0.12394821 -0.031025516 -0.038808446 -0.029259996 0.05414165 0.13195468
0.021341475 0.081162676 -0.25111094 0.104474105 -0.2230209 -0.06442266 -0.08771837 -0.23764682
-0.014146456 0.12820041 -0.3977064 -0.2038887 0.047700875 -0.16739689 0.032595072 -0.019350972
0.15129264 0.073037714 0.14671779 0.039580204 0.16393611 -0.04377554 -0.14674288 0.03337173
0.095373325 0.09438126 0.029743608 0.024691172 -0.034827657 0.13780427 0.09501593 -0.006641224
-0.30843288 0.0077477247 -0.2704197 0.32288113 -0.33506015 -0.3275341 -0.18746227 -0.07936576
00000000: 8a0d 8a3d a960 2d3d 1cf7 d2bc efce c6bd
00000010: eab6 d2bd 4def 16be 9729 923d 2b02 cd3a
00000020: 4ae6 25be 5075 61bd 616d 11bd f7cb c3bc
00000030: a0be e23d a632 e1bc 89de 3a3d e20d b13d
00000040: fa62 40be c1fb 023e cccf 06be 0cc3 ee3d
00000050: 8dfc 033e 5a01 7c3e 49c6 043e 91cc 573e
00000060: 21c5 39be d5c1 223d f433 123e 6b7c 8cbe
00000070: 256d 383e 0951 f83d 6dec 4ebd 21cd 91bb
00000080: 42a5 fdbd 3c37 15bd 7b96 f63d be82 993d
00000090: edd7 f5bd 1d28 11be 6cf2 03be 9963 3cbe
000000a0: 58a6 18be b440 56bd 3eec dd3d 1d3f ab3c
000000b0: d039 13be 77e3 05be 6348 943d 50a6 06be
000000c0: c04e b2bc 313f 8c3d c5c6 dcbd 2f46 f6bc
000000d0: f295 e9bc 7926 6dbd 4a63 cbbd 1a5e 21be
000000e0: d240 18be 9bdb c1bd d7d5 2e3e b8de aebd
000000f0: 7d1e f3bd ae99 da3c 2c90 473d 8a3d a73d
00000100: 12c4 893d 4433 a73d cb6c 4cbe b729 45ba
00000110: c992 da3d 2106 3ebc 8cfd e6bd 7b69 553e
00000120: d142 19be 4707 14be ccd4 92be 33ed a93d
00000130: 3fdc fc3d abf6 05be c252 b23d 2445 91be
00000140: 27d6 13be fe66 febd 225f 683d f7b1 ce3d
00000150: 14d5 cebc db7b 193e 8960 01be 8869 0e3e
00000160: 2596 b83c 4d9a 7f39 ee45 973d 50f2 1fbf
00000170: 393d 1d3e 9a9a 1ebe d399 6abd 5765 043e
00000180: cc4a 1b3d f713 e43d 67ad 2abe 9523 e1bd
00000190: fe28 d33d 0f55 85bd 5f3c b9bd 64a2 02be
000001a0: 6d98 a03d 4cb2 6a3d e222 963b dc73 cbbd
000001b0: 7f96 37be 1bd2 57bc 2235 643c 597e cdbd
000001c0: ca2f cabd 564a 9e3d b745 08bd f220 99bd
000001d0: 2032 32bd 4d0b 47be b909 35be 580f adbd
000001e0: ce4e 21be a80e d23c 1da2 b6bd 35a3 8dbd
000001f0: 9a09 023e bcb2 ac3c bd82 bb3d d58c 04be
00000200: 0432 65be 2266 ae3d a1f5 73be 6f89 3dbe
00000210: 0523 09be f74d b7bd 8e65 03be f8e1 383d
00000220: 1aaa b03d 8e32 323c 7153 0fbe 347d 5abe
00000230: 0ce4 4cbd 7cf8 af3c 1588 ef3d 1e04 c8bd
00000240: d987 bcbd f03b a43c 17d4 aebe f2b5 9a3d
00000250: 704c 64be 3073 4f3c 5c94 9cbd 4e72 03bb
00000260: 8509 ddbd 9ea8 c93d e64c 62bd ae40 a73d
00000270: 59c5 093e 4020 8bbe d5dc 29be 3f42 3b3d
00000280: 5fe5 983d c27e 1ebe 3a68 22bd 13dc 56be
00000290: f955 54be 9168 473c 709a 163d d217 8e3d
000002a0: 8da5 4c3d 5bfe 2d3e 7528 433e 6cf5 40be
000002b0: 13d8 c63d 6f48 443e 9cc5 1b3e 4867 acbe
000002c0: a241 45bd 0f33 dbbd 111f 13be c9d2 fb3b
000002d0: 1ce5 b03e 00c4 2c3e d5f0 c53d 6b6a b93d
000002e0: b58e ad3c c8d5 c1bc ad3d 88be f92d 5c3e
000002f0: fc03 c1be da02 9bbe 1077 e23d fbb3 b0bb
00000300: de02 b13d be8d 603d fe4d aebe fc15 8dbd
00000310: e341 853c 9cb5 ebbd 61b3 6d3e 9eca b7be
00000320: b1d0 99bd 7f4d 783e dee5 c93d d97e fe3d
00000330: 9311 4abe a67a 17be 6ab8 00be 803a 1f3b
00000340: c618 c03d d621 ce3d 8fd8 fdbd 3929 febc
00000350: 9bf5 1ebd a9b2 efbc a3c3 5d3d 211f 073e
00000360: 51d4 ae3c 9e38 a63d 9d91 80be 85f6 d53d
00000370: 975f 64be 07f0 83bd b0a5 b3bd b059 73be
00000380: 89c6 67bc f846 033e 2ca0 cbbe 33c8 50be
00000390: fe61 433d 176a 2bbe 6982 053d ee85 9ebc
000003a0: 75ec 1a3e cc94 953d 303d 163e da1e 223d
000003b0: dede 273e fb4d 33bd c443 16be ccb0 083d
000003c0: 1753 c33d f64a c13d dea8 f33c 2445 ca3c
000003d0: 72a7 0ebd 901c 0d3e b697 c23d a09e d9bb
000003e0: eaea 9dbe a0e0 fd3b 7374 8abe ad50 a53e
000003f0: 018d abbe 8db2 a7be 1cf6 3fbe 848a a2bd

bias f4 [32]
-0.045287963 -0.055962104 0.09641641 -0.10297809 -0.1449639 -0.064696655 -0.13521568 -0.051657397
-0.10554173 0.120596245 0.037642553 0.06572201 -0.22924328 -0.076263905 0.016913855 0.12248449
-0.21890871 0.038667332 -0.15706372 0.019092312 0.12732233 0.055584867 -0.12924847 0.1997425
0.16380422 0.09306224 0.09786959 0.0068211765 0.055384226 -0.1397356 -0.04831902 0.109957114
00000000: df7f 39bd 8538 65bd f775 c53d 2de6 d2bd
00000010: 6b71 14be ae7f 84bd fb75 0abe b596 53bd
00000020: 4326 d8bd 2afb f63d 142f 1a3d 4399 863d
00000030: c0be 6abe 4030 9cbd ed8e 8a3c 26d9 fa3d
00000040: 9b29 60be a361 1e3d 50d5 20be 7b67 9c3c
00000050: c960 023e f5ac 633d b659 04be 4c89 4c3e
00000060: 4bbc 273e 6a97 be3d da6f c83d 2d84 df3b
00000070: 92da 623d d916 0fbe 2aea 45bd 3231 e13d

weight f4 [4, 32]
0.043358862 -0.08491689 0.021582471 0.09062241 0.006186744 -0.13395055 0.0968247 -0.120901704
0.064261466 0.061506446 0.092553556 0.10120078 -0.2136281 0.12099327 0.013784299 -0.06446384
-0.1368889 -0.20192765 -0.053836685 0.12976345 0.10660586 -0.14304617 -0.11573082 -0.07808693
0.1593234 0.119214356 0.098805256 0.18837005 0.0063192076 -0.24575958 -0.29143354 0.12291378
0.1559036 -0.01435738 0.16283712 0.07218337 0.25414154 -0.25707784 0.31891307 -0.13003007
0.15313111 0.118982516 -0.09623527 0.2596118 -0.08823614 -0.008966401 -0.005433067 -0.14185931
0.2260961 -0.08123621 0.16568683 0.18315755 0.027544416 0.042350944 -0.11601301 -0.03796716
-0.019086719 -0.10483842 -0.06091099 0.07155725 -0.05008667 0.057885125 -0.033112172 0.123677276
-0.016431924 0.007860444 0.028265134 0.021407193 -0.100368485 -0.11408869 -0.06233889 0.065436356
-0.2620062 0.11211051 0.03233692 0.1363343 0.01595044 0.15099508 -0.0214214 -0.12354296
0.015437521 -0.14157361 -0.054114394 -0.00918554 -0.04513137 -0.07972531 0.16244374 0.13054566
0.07870951 0.18639484 -0.04701133 0.09000887 0.17316926 0.052257944 -0.28282195 0.15360625
-0.011263613 -0.023936687 0.034821056 -0.16110416 -0.015834296 -0.20658799 0.12717041 -0.031503353
0.053701613 0.09809374 -0.030516261 0.057732187 0.11335983 0.060102947 0.024259062 -0.12959254
0.19578452 -0.17154561 0.17990729 -0.026088433 -0.13447465 0.07964859 0.011005476 -0.066873886
-0.03093728 -0.03723909 0.116969585 0.046832096 0.14885876 0.23327693 -0.084382184 0.17258814
00000000: 1099 313d e8e8 adbd b9cd b03c 3e98 b93d
00000010: 2cba ca3b 552a 09be 074c c63d 509b f7bd
00000020: 849b 833d 2fee 7b3d b88c bd3d 5b42 cf3d
00000030: 53c1 5abe 52cb f73d 8ad7 613c 9e05 84bd
00000040: 9b2c 0cbe 1fc6 4ebe db83 5cbd b6e0 043e
00000050: 2c54 da3d b27a 12be 4804 edbd 0aec 9fbd
00000060: ac25 233e a826 f43d 695a ca3d 14e4 403e
00000070: 5b11 cf3b 66a8 7bbe c736 95be 38ba fb3d
00000080: 31a5 1f3e 373b 6bbc c6be 263e e0d4 933d
00000090: d71e 823e b59f 83be 9348 a33e 9a26 05be
000000a0: 67ce 1c3e 1bad f33d ff16 c5bd d6eb 843e
000000b0: 26b5 b4bd d0e7 12bc df07 b2bb 9143 11be
000000c0: bc85 673e 2c5f a6bd cfa9 293e a78d 3b3e
000000d0: d4a4 e13c 2f78 2d3d 3b98 edbd 7483 1bbd
000000e0: c05b 9cbc 87b5 d6bd cd7d 79bd 9c8c 923d
000000f0: ae27 4dbd f418 6d3d a1a0 07bd 834a fd3d
00000100: 3e9c 86bc 17c9 003c 488c e73c 235e af3c
00000110: fe8d cdbd 55a7 e9bd 1057 7fbd 7f03 863d
00000120: ad25 86be 329a e53d b873 043d 389b 0b3e
00000130: 7faa 823c 749e 1a3e ef7b afbc 1704 fdbd
00000140: a8ed 7c3c acf8 10be 0ea7 5dbd f27e 16bc
00000150: acdb 38bd 0647 a3bd a757 263e c3ad 053e
00000160: 7432 a13d 4ade 3e3e f48e 40bd 9256 b83d
00000170: 4853 313e 6d0c 563d 0ace 90be f54a 1d3e
00000180: 048b 38bc df16 c4bc 86a0 0e3d 7df8 24be
00000190: edb6 81bc cd8b 53be f638 023e a909 01bd
000001a0: 39f6 5b3d 5fe5 c83d 3dfd f9bc 9678 6c3d
000001b0: 3329 e83d 822e 763d f1ba c63c e8b3 04be
000001c0: bd7b 483e a7a9 2fbe 9e39 383e 69b7 d5bc
000001d0: b9b3 09be cd1e a33d 5050 343c 2df5 88bd
000001e0: 2e70 fdbc 0488 18bd c08d ef3d 03d3 3f3d
000001f0: 6e6e 183e 26e0 6e3e 91d0 acbd f2ba 303e

bias f4 [4]
0.053328127 0.14550164 -0.04443359 0.12517667
00000000: 986e 5a3d 62fe 143e ffff 35bd 502e 003e

weight f4 [32, 8]
0.30415276 0.29545385 -0.06882781 0.23454848 -0.15647502 0.022991138 -0.0071982946 0.2295869
0.44158182 -0.6213224 0.34303582 0.06572187 0.10918894 0.13614495 0.20166996 -0.1643125
0.27752084 0.09823184 -0.18973814 0.10213276 -0.19653615 -0.08847481 -0.3421239 0.23346944
-0.24804492 -0.11173617 -0.04431436 -0.2052293 0.07382423 -0.29648522 0.10951955 -0.4361275
0.31471255 -0.093023546 -0.00024190496 0.22417703 -0.03372297 0.32789308 0.03953135 -0.1808492
0.052593958 -0.14104179 0.10381291 0.35440844 0.24620605 -0.115756355 0.16220208 0.03858618
0.23999326 -0.20401575 -0.27104896 -0.080121234 -0.21751234 0.35459432 -0.05800375 0.22783741
0.055760883 0.007321949 0.20421751 -0.3057864 0.1849717 -0.23618172 -0.063062474 -0.36107147
-0.057922013 -0.17074572 0.22525682 -0.09989527 -0.09896642 -0.09959452 0.1769224 0.3166307
0.40678898 -0.25646266 -0.40469778 -0.19776194 -0.15551825 0.18323326 0.09188749 0.48270097
-0.24155174 -0.38457906 0.24354038 -0.0960667 0.30996093 -0.058403607 0.17335486 0.010212615
-0.1799316 0.07986835 0.12190089 -0.08506294 0.26254442 0.25015652 -0.5385633 -0.23691233
0.19984704 -0.107486606 -0.14364496 -0.32075742 -0.1277111 0.1067986 -0.3190358 -0.38139662
0.20879842 -1.1483393 -0.19934782 -0.25268453 -0.24905077 -0.32547745 0.51869893 0.3093017
0.13991778 -0.2532651 -0.18306465 -0.014429765 -0.048071 -0.2809962 -0.09779109 -0.37024504
0.14889736 -1.0090102 0.06563748 -0.24880491 -0.14831972 -0.14145245 -0.5890886 -0.2790529
0.1364027 -0.12596561 0.21710831 0.3035441 -0.13566446 0.39505202 -0.1504219 0.11267273
-0.19356504 -0.79061025 0.101420276 -0.087002255 0.23706017 -0.20653473 0.28304896 -0.32899973
-0.2097078 0.13520327 0.118394576 0.27482107 0.40347242 -0.22121176 0.0057746307 -0.02503562
-0.094806984 -0.1634634 0.27033916 -0.29299977 0.28941613 0.07078456 -0.14015761 -0.19551413
0.32128963 0.057874918 -0.008573764 -0.28418395 0.23051971 0.044118367 -0.06111674 0.39641994
0.017721584 -0.40479475 -0.20560187 0.11242474 0.117442206 -0.21924385 0.2313076 -0.09866328
-0.2671805 0.03144862 0.27378792 -0.28379613 0.070477776 0.22604005 0.018104283 -0.05091281
0.05566936 0.23968899 0.052857067 0.13802186 -0.068530224 0.12923978 -0.0412135 -0.105359286
0.1466111 0.28829542 -0.013402782 -0.115537256 0.028156545 -0.018045284 0.08366818 -0.033754956
-0.41862527 -0.21616791 0.18655242 0.22888157 0.020755429 -0.15282655 -0.33526424 -0.3167014
-0.053335525 0.113787994 0.30172712 0.11726261 -0.30273804 -0.124028064 -0.13593388 0.35415468
0.04043647 -0.8230678 0.1661319 -0.282469 -0.20383671 0.6273645 -0.09000745 -0.19602852
0.00052774145 0.20146516 0.4417429 0.04012879 -0.37513366 -0.435104 -0.1093208 0.06377426
0.2155654 0.2631044 0.10508563 0.01071223 -0.009789484 -0.29049903 -0.26974556 -0.3306957
-0.033960808 -1.09533 -0.16011073 -0.22665413 -0.023186045 -0.47131735 -0.38909385 0.24243978
-0.12194769 0.18097658 -0.1193521 -0.22576553 -0.032870818 -0.1547921 -0.32671946 -0.34682944
00000000: e9b9 9b3e ba45 973e 98f5 8cbd 7a2d 703e
00000010: fd3a 20be e957 bc3c acdf ebbb d418 6b3e
00000020: 0317 e23e fc0e 1fbf 64a2 af3e 3099 863d
00000030: 739e df3d 9569 0b3e 9282 4e3e 8941 28be
00000040: 3617 8e3e c62d c93d b74a 42be fb2a d13d
00000050: c640 49be 4832 b5bd dd2a afbe 9d12 6f3e
00000060: 7dff 7dbe efd5 e4bd f982 35bd a127 52be
00000070: 2831 973d e9cc 97be c94b e03d 1b4c dfbe
00000080: 0122 a13e 2183 bebd dea7 7db9 aa8e 653e
00000090: 1921 0abd 9ae1 a73e a0eb 213d 8830 39be
000000a0: c36c 573d 426d 10be dd9b d43d 0675 b53e
000000b0: 701d 7c3e ab11 edbd 4d18 263e 8b0c 1e3d
000000c0: cbc0 753e 81e9 50be eec6 8abe 9a16 a4bd
000000d0: 8ebb 5ebe 638d b53e 5795 6dbd 364e 693e
000000e0: 8665 643d f6ec ef3b 651e 513e 0990 9cbe
000000f0: 3969 3d3e 9fd9 71be e626 81bd 5cde b8be
00000100: a23f 6dbd f7d7 2ebe b9a9 663e e495 ccbd
00000110: e8ae cabd 36f8 cbbd 252b 353e 6b1d a23e
00000120: a546 d03e 134f 83be 8c34 cfbe 1b82 4abe
00000130: 2d40 1fbe 80a1 3b3e 822f bc3d 9524 f73e
00000140: 5759 77be 8ce7 c4be a662 793e 9ebe c4bd
00000150: 33b3 9e3e 9f38 6fbd f083 313e d052 273c
00000160: fd3f 38be 0492 a33d 2ca7 f93d 7b35 aebd
00000170: 396c 863e 8414 803e 49df 09bf 2599 72be
00000180: b4a4 4c3e f021 dcbd aa17 13be 513a a4be
00000190: b3c6 02be 39b9 da3d a958 a3be 6b46 c3be
000001a0: 41cf 553e c8fc 92bf d621 4cbe de5f 81be
000001b0: 2a07 7fbe fba4 a6be 74c9 043f cb5c 9e3e
000001c0: 9b46 0f3e f7ab 81be 4d75 3bbe d26a 6cbc
000001d0: 19e6 44bd bcde 8fbe b246 c8bd c290 bdbe
000001e0: 8d78 183e 3f27 81bf f16c 863d b7c6 7ebe
000001f0: 20e1 17be e9d8 10be 83ce 16bf 06e0 8ebe
00000200: 26ad 0b3e 21fd 00be a451 5e3e 226a 9b3e
00000210: a0eb 0abe 4244 ca3e 3308 1abe f6c0 e63d
00000220: ea35 46be 6f65 4abf 6fb5 cf3d 3d2e b2bd
00000230: e7bf 723e d77d 53be cbeb 903e a772 a8be
00000240: a4bd 56be ba72 0a3e db78 f23d 59b5 8c3e
00000250: f093 ce3e 5685 62be 1d39 bd3b 8017 cdbc
00000260: 2a2a c2bd f362 27be e569 8a3e 1104 96be
00000270: 5a2e 943e 7ff7 903d 7a85 0fbe db34 48be
00000280: 1380 a43e 400e 6d3d f978 0cbc 8f80 91be
00000290: 5c0d 6c3e 76b5 343d 8c55 7abd 8ef7 ca3e
000002a0: db2c 913c 4241 cfbe 4c89 52be f13e e63d
000002b0: 8a85 f03d 7681 60be e6db 6c3e f90f cabd
000002c0: e2cb 88be 45d0 003d ee2d 8c3e ba4d 91be
000002d0: a756 903d 0b77 673e 6f4f 943c f389 50bd
000002e0: 8e05 643d 0871 753e a780 583d 9a55 0d3e
000002f0: 9359 8cbd 6f57 043e 7dcf 28bd 9cc6 d7bd
00000300: 3821 163e 759b 933e 5897 5bbc cc9e ecbd
00000310: 8ea8 e63c b4d3 93bc 395a ab3d a342 0abd
00000320: 0d56 d6be 1f5b 5dbe 9907 3f3e ee5f 6a3e
00000330: 4a07 aa3c 907e 1cbe c1a7 abbe b026 a2be
00000340: 5a76 5abd ae09 e93d fa7b 9a3e 6127 f03d
00000350: 7b00 9bbe 6d02 febd 4032 0bbe c353 b53e
00000360: b6a0 253d 92b4 52bf 7b1e 2a3e c79f 90be
00000370: 92ba 50be f69a 203f d355 b8bd b3bb 48be
00000380: 2158 0a3a e24c 4e3e 202c e23e 165e 243d
00000390: 8511 c0be f4c5 debe 95e3 dfbd 149c 823d
000003a0: 2dbd 5c3e 9fb5 863e 2337 d73d 5982 2f3c
000003b0: 1264 20bc 4abc 94be 171c 8abe f250 a9be
000003c0: 7d1a 0bbd c633 8cbf 11f4 23be 0518 68be
000003d0: a9f0 bdbc 8250 f1be 4f37 c7be 2242 783e
000003e0: b6bf f9bd ed51 393e e06e f4bd 142f 67be
000003f0: 8da3 06bd d281 1ebe c647 a7be a193 b1be

bias f4 [32]
0.26164198 -0.34595862 0.20488508 0.14311445 0.19039908 -0.31129503 0.27957544 -0.1145503
0.11316265 0.33483413 -0.12211463 0.034617033 -0.109891735 -0.2919053 0.054804847 -0.4267669
0.104882725 0.29744947 0.33108228 -0.015993312 -0.3074496 0.03153431 0.13560846 -0.42714053
-0.059772007 -0.27450886 0.039417505 -0.16419557 -0.15105702 -0.071315974 -0.34125218 0.26458195
00000000: f0f5 853e 7d21 b1be 65cd 513e 988c 123e
00000010: faf7 423e 1062 9fbe 8324 8f3e 5999 eabd
00000020: d2c1 e73d 616f ab3e 3c17 fabd 97ca 0d3d
00000030: eb0e e1bd 9d74 95be 0c7b 603d 3181 dabe
00000040: c1cc d63d 4c4b 983e 9e83 a93e 6804 83bc
00000050: 096a 9dbe 1f2a 013d f2dc 0a3e 2ab2 dabe
00000060: 7ed3 74bd 6d8c 8cbe 4074 213d e222 28be
00000070: b1ae 1abe 1c0e 92bd 9bb8 aebe 4977 873e

weight f4 [32, 32]
0.07381456 0.040583674 -0.016990004 -0.09249513 -0.102441125 -0.14739724 0.06850575 -8.644332e-06
-0.16219139 -0.048809372 -0.0107986955 -0.017088616 0.10983317 -0.036536377 0.055460583 0.073385455
-0.18841703 0.13221784 -0.12907958 0.12707263 0.15118311 0.24158324 0.12678389 0.2107413
-0.18681857 0.03696876 0.14531241 -0.2952199 0.18273741 0.12506607 -0.053240433 0.0008252836
-0.12385036 -0.03642963 0.120404206 0.0749564 -0.12004075 -0.14175458 -0.12885445 -0.18397368
-0.14907205 -0.0523078 0.10836075 0.020904118 -0.14377522 -0.13075052 0.07240369 -0.1314938
-0.021766067 0.0684799 -0.107801 -0.030062763 -0.028513882 -0.05789802 -0.09931047 -0.15758553
-0.14868477 -0.094657145 0.17073761 -0.08538574 -0.118710496 0.026684608 0.048721477 0.081660345
0.068302624 0.13221017 -0.19849062 0.0022934172 0.09782117 -0.011598141 -0.10750054 0.21608788
-0.14188823 -0.13524733 -0.27158958 0.08445517 0.14286365 -0.13809648 0.08442115 -0.2697748
-0.12753628 -0.11956459 0.08414472 0.116836615 -0.025116371 0.15619232 -0.1170195 0.13907444
0.02538255 -0.0710126 0.08065329 -0.6045775 0.15905459 -0.15406053 -0.075112686 0.13493201
0.03791313 0.111366205 -0.1666771 -0.10993115 0.10310553 -0.06510364 -0.09044718 -0.1275726
0.07841573 0.057298943 0.004581795 -0.09934208 -0.17928503 -0.013172652 0.0139286835 -0.100338645
-0.09872396 0.07729022 -0.03326961 -0.07476987 -0.043504834 -0.19437905 -0.1767949 -0.08450192
-0.15752718 0.025641754 -0.089176394 -0.06915895 0.12698975 0.021081321 0.09155796 -0.12944348
-0.2238236 0.08515574 -0.23824169 -0.18509458 -0.13392265 -0.089504175 -0.12831709 0.045137376
0.08626194 0.010876311 -0.13996674 -0.21336824 -0.05002217 0.021480791 0.116958775 -0.0976641
-0.092055984 0.020048112 -0.34146187 0.075542346 -0.22294784 0.01266174 -0.07645485 -0.0020057145
-0.10792831 0.09846614 -0.055249117 0.081666335 0.13454188 -0.27173042 -0.16588147 0.045717474
0.090809904 -0.15478042 -0.015806759 -0.20831095 -0.19948924 0.012170927 0.038464166 0.07519271
0.03770013 0.1706138 0.17129318 -0.18501003 0.097593464 0.13990267 0.118924186 -0.29854432
-0.041204613 -0.11520472 -0.14323255 0.012559247 0.33891118 0.18030442 0.10303375 0.09053501
0.037802033 -0.02366151 -0.29766744 0.22207613 -0.42075837 -0.28269735 0.08323526 0.0066985423
0.08493065 0.054822676 -0.37807262 -0.060463574 0.012565 -0.115092486 0.23972853 -0.34401038
-0.07275157 0.25507468 0.11764556 0.13516729 -0.19110295 -0.13369372 -0.11766377 0.0024296343
0.09030861 0.12601864 -0.10746773 -0.014512925 -0.01846725 -0.030967705 0.06439153 0.13195468
0.004295579 0.081162676 -0.25111094 0.1014413 -0.2230209 -0.06442266 -0.06889892 -0.23100094
-0.0014514781 0.12820041 -0.33353597 -0.1887068 0.058334608 -0.16739689 0.030753342 0.0061630136
0.15044862 0.06479926 0.107843205 0.03132918 0.19281489 -0.095960446 -0.13223134 0.03337173
0.10508455 0.07467316 0.01374137 0.009145887 -0.06699539 0.13719922 0.094159834 -0.006641224
-0.2849768 0.0077477247 -0.26121417 0.33116618 -0.33506015 -0.3275341 -0.2526318 -0.058985997
00000000: 172c 973d 113b 263d 9f2e 8bbc 166e bdbd
00000010: a7cc d1bd 4def 16be be4c 8c3d 2007 11b7
00000020: 8015 26be 56ec 47bd 03ed 30bc 6dfd 8bbc
00000030: 37f0 e03d 2ba7 15bd a32a 633d 1d4b 963d
00000040: 65f0 40be 1d64 073e 702d 04be 541f 023e
00000050: bfcf 1a3e 9961 773e a3d3 013e 91cc 573e
00000060: 5e4d 3fbe 8e6c 173d c7cc 143e 1027 97be
00000070: 841f 3b3e 5211 003e a412 5abd d857 583a
00000080: 42a5 fdbd 3c37 15bd 7b96 f63d be82 993d
00000090: edd7 f5bd 1d28 11be 6cf2 03be 9963 3cbe
000000a0: 58a6 18be b440 56bd 3eec dd3d 1d3f ab3c
000000b0: d039 13be 77e3 05be 6348 943d 50a6 06be
000000c0: c04e b2bc 313f 8c3d c5c6 dcbd 2f46 f6bc
000000d0: f295 e9bc 7926 6dbd 4a63 cbbd 1a5e 21be
000000e0: d240 18be 9bdb c1bd d7d5 2e3e b8de aebd
000000f0: 7d1e f3bd ae99 da3c 2c90 473d 8a3d a73d
00000100: 3fe2 8b3d 1a62 073e 2041 4bbe 284d 163b
00000110: 7756 c83d 2106 3ebc 3e29 dcbd 2446 5d3e
00000120: 264b 11be 477e 0abe ca0d 8bbe d5f6 ac3d
00000130: d94a 123e 2a69 0dbe ffe4 ac3d ec1f 8abe
00000140: df98 02be 48de f4bd 1154 ac3d 0948 ef3d
00000150: d9c0 cdbc e1f0 1f3e eba7 efbd 8869 0e3e
00000160: 11ef cf3c 0e6f 91bd 8d2d a53d 97c5 1abf
00000170: 35df 223e 0bc2 1dbe aed4 99bd 9e2b 0a3e
00000180: cc4a 1b3d f713 e43d 67ad 2abe 9523 e1bd
00000190: fe28 d33d 0f55 85bd 5f3c b9bd 64a2 02be
000001a0: 6d98 a03d 4cb2 6a3d e222 963b dc73 cbbd
000001b0: 7f96 37be 1bd2 57bc 2235 643c 597e cdbd
000001c0: ca2f cabd 564a 9e3d b745 08bd f220 99bd
000001d0: 2032 32bd 4d0b 47be b909 35be 580f adbd
000001e0: ce4e 21be a80e d23c 1da2 b6bd 35a3 8dbd
000001f0: 9a09 023e bcb2 ac3c bd82 bb3d d58c 04be
00000200: 0432 65be 2266 ae3d a1f5 73be 6f89 3dbe
00000210: 0523 09be f74d b7bd 8e65 03be f8e1 383d
00000220: 1aaa b03d 8e32 323c 7153 0fbe 347d 5abe
00000230: 0ce4 4cbd 7cf8 af3c 1588 ef3d 1e04 c8bd
00000240: d987 bcbd f03b a43c 17d4 aebe f2b5 9a3d
00000250: 704c 64be 3073 4f3c 5c94 9cbd 4e72 03bb
00000260: 8509 ddbd 9ea8 c93d e64c 62bd ae40 a73d
00000270: 59c5 093e 4020 8bbe d5dc 29be 3f42 3b3d
00000280: 8bfa b93d c27e 1ebe 2d7d 81bc 774f 55be
00000290: e846 4cbe 9168 473c 9a8c 1d3d a3fe 993d
000002a0: 746b 1a3d 62b5 2e3e 7b67 2f3e 4573 3dbe
000002b0: 15df c73d a542 0f3e 868e f33d cdda 98be
000002c0: 2bc6 28bd 74f0 ebbd 8eab 12be 4dc5 4d3c
000002d0: c485 ad3e b9a1 383e 5c03 d33d 6b6a b93d
000002e0: 4ed6 1a3d c8d5 c1bc de67 98be ed67 633e
000002f0: a46d d7be b5bd 90be 3f77 aa3d 727f db3b
00000300: 1ff0 ad3d be8d 603d bc92 c1be a7a8 77bd
00000310: 6edd 4d3c 9cb5 ebbd 657b 753e 2122 b0be
00000320: c6fe 94bd 2699 823e 28f0 f03d 4b69 0a3e
00000330: 7eb0 43be 02e7 08be b4f9 f0bd 803a 1f3b
00000340: b8f3 b83d 080b 013e 0b18 dcbd 9fc7 6dbc
00000350: a148 97bc fcaf fdbc b5df 833d 211f 073e
00000360: eec1 8c3b 9e38 a63d 9d91 80be 75c0 cf3d
00000370: 975f 64be 07f0 83bd e11a 8dbd 838b 6cbe
00000380: 863f beba f846 033e 3ac5 aabe 5b3c 41be
00000390: 45f0 6e3d 176a 2bbe 6fee fb3c 1bf3 c93b
000003a0: 340f 1a3e 79b5 843d e6dc dc3d 0753 003d
000003b0: 4471 453e e986 c4bd a767 07be ccb0 083d
000003c0: 9236 d73d 3eee 983d 7c23 613c a1d8 153c
000003d0: e134 89bd f47d 0c3e dfd6 c03d a09e d9bb
000003e0: 7be8 91be a0e0 fd3b ddbd 85be 9d8e a93e
000003f0: 018d abbe 8db2 a7be f558 81be 4d9b 71bd

bias f4 [32]
-0.038465127 -0.055962104 0.10104524 -0.10297809 -0.1449639 -0.055741087 -0.12425449 -0.045879867
-0.10071753 0.11304839 0.043376707 0.055390146 -0.23685461 -0.0785764 0.016913855 0.119513996
-0.21890871 0.04215225 -0.16464615 0.012902424 0.12732233 0.062209193 -0.12924847 0.19659333
0.16330972 0.09068433 0.10638777 0.0011356733 0.052422788 -0.138934 -0.044422027 0.10041596
00000000: 9c8d 1dbd 8538 65bd cff0 ce3d 2de6 d2bd
00000010: 6b71 14be c450 64bd 2379 febd 87ec 3bbd
00000020: fe44 cebd ea85 e73d c6ab 313d c7e0 623d
00000030: 048a 72be aaec a0bd ed8e 8a3c c1c3 f43d
00000040: 9b29 60be d6a7 2c3d 0099 28be b064 533c
00000050: c960 023e 11cf 7e3d b659 04be c34f 493e
00000060: aa3a 273e b5b8 b93d d5e1 d93d dfda 943a
00000070: 47b9 563d b744 0ebe dff3 35bd e2a6 cd3d

weight f4 [4, 32]
0.043824736 -0.08491689 0.024517674 0.09062241 0.006186744 -0.13447776 0.11280773 -0.12321513
0.064261466 0.060746938 0.096362196 0.10337355 -0.2136281 0.12525612 0.013784299 -0.053136367
-0.1368889 -0.21523634 -0.03798585 0.13591656 0.10660586 -0.14661805 -0.11573082 -0.07731561
0.1612582 0.121005856 0.08794108 0.18709886 0.00011489692 -0.24488409 -0.2945221 0.11833776
0.16659777 -0.01435738 0.16997011 0.07218337 0.25414154 -0.29472518 0.31891307 -0.13149056
0.16000405 0.10914071 -0.08785739 0.24832892 -0.094927505 -0.01506955 -0.005433067 -0.11748506
0.2260961 -0.08443089 0.17114408 0.16865368 0.027544416 0.031141033 -0.11601301 -0.052584864
-0.009705828 -0.10806691 -0.06974382 0.066061236 -0.04837486 0.038488816 -0.05760156 0.1198274
-0.018905146 0.007860444 0.032198824 0.021407193 -0.100368485 -0.121717714 -0.062741525 0.06304338
-0.2620062 0.113664955 0.037171483 0.13102335 0.014432795 0.15328822 -0.0214214 -0.119878285
0.015437521 -0.15051222 -0.039300207 -0.013020946 -0.04513137 -0.07972531 0.16244374 0.1318385
0.08160556 0.18087098 -0.07769905 0.090594135 0.17274655 0.051302206 -0.3066075 0.14875838
-0.0020692316 -0.023936687 0.035069447 -0.16110416 -0.015834296 -0.18077026 0.12717041 -0.031503353
0.053701613 0.09156196 -0.03330112 0.055171765 0.11630594 0.05579437 0.024259062 -0.121250644
0.19578452 -0.17087281 0.16223955 -0.026261274 -0.13447465 0.07964859 0.011005476 -0.057609975
-0.025149105 -0.040062007 0.10132518 0.057585586 0.15415269 0.23327693 -0.10841237 0.1621868
00000000: 9181 333d e8e8 adbd 4ad9 c83c 3e98 b93d
00000010: 2cba ca3b 8ab4 09be bd07 e73d 3758 fcbd
00000020: 849b 833d c8d1 783d 8b59 c53d 83b5 d33d
00000030: 53c1 5abe 2443 003e 8ad7 613c 85a5 59bd
00000040: 9b2c 0cbe ea66 5cbe 0d97 1bbd b62d 0b3e
00000050: 2c54 da3d 0b23 16be 4804 edbd a657 9ebd
00000060: df20 253e ebd1 f73d 741a b43d d896 3f3e
00000070: d0f4 f038 e5c2 7abe 9acb 96be 115b f23d
00000080: 9b98 2a3e 373b 6bbc a50c 2e3e e0d4 933d
00000090: d71e 823e 38e6 96be 9348 a33e 76a5 06be
000000a0: 1ad8 233e 2a85 df3d 93ee b3bd f049 7e3e
000000b0: 5a69 c2bd 46e6 76bc df07 b2bb 029c f0bd
000000c0: bc85 673e 1aea acbd 6540 2f3e 8db3 2c3e
000000d0: d4a4 e13c 7b1b ff3c 3b98 edbd 3a63 57bd
000000e0: 3105 1fbc 2f52 ddbd d9d5 8ebd 1d4b 873d
000000f0: b824 46bd 73a6 1d3d 9def 6bbd 1168 f53d
00000100: f7de 9abc 17c9 003c eae2 033d 235e af3c
00000110: fe8d cdbd 2347 f9bd a17e 80bd e31c 813d
00000120: ad25 86be 2cc9 e83d 2041 183d fc2a 063e
00000130: 8877 6c3c 96f7 1c3e ef7b afbc bf82 f5bd
00000140: a8ed 7c3c e01f 1abe 41f9 20bd ce55 55bc
00000150: acdb 38bd 0647 a3bd a757 263e ac00 073e
00000160: d120 a73d 3e36 393e ae20 9fbd 6b89 b93d
00000170: 79e4 303e 4322 523d a9fb 9cbe 1e54 183e
00000180: f29b 07bb df16 c4bc fba4 0f3d 7df8 24be
00000190: edb6 81bc d71b 39be f638 023e a909 01bd
000001a0: 39f6 5b3d d684 bb3d c166 08bd cafb 613d
000001b0: cf31 ee3d a388 643d f1ba c63c 4252 f8bd
000001c0: bd7b 483e 48f9 2ebe 2022 263e e221 d7bc
000001d0: b9b3 09be cd1e a33d 5050 343c 70f8 6bbd
000001e0: 7f05 cebc 0f18 24bd 9383 cf3d ddde 6b3d
000001f0: 34da 1d3e 26e0 6e3e 4e07 debd 4c14 263e

bias f4 [4]
0.051127717 0.15184498 -0.047783274 0.122429416
00000000: 4c6b 513d 407d 1b3e 65b8 43bd 46bc fa3d

exp_avg f4 [32, 8]
-4.52828e-06 -2.480004e-06 -3.9188704e-05 3.3159744e-05 4.303163e-05 2.674956e-05 3.3123572e-06 5.25504e-06
-0.00012530084 -0.000118401345 -0.00040699102 9.678395e-05 0.00021497475 8.63655e-05 3.1346627e-07 6e-45
-5.9468475e-06 3.609733e-05 -4.8764803e-05 2.3726192e-05 5.4935976e-05 2.6446163e-05 3.1103352e-07 -1.3267407e-07
-1.6225606e-05 1.732622e-05 -3.6203477e-05 -4.310264e-05 2.278903e-05 7.193079e-06 -3.2462584e-08 -1.8747958e-06
7.731707e-06 3.2225516e-06 6.339665e-06 4.7015737e-06 -1.2572733e-05 -3.3474807e-05 6e-45 -1.42631125e-05
-6e-45 -6e-45 6e-45 -6e-45 6e-45 -6e-45 6e-45 6e-45
-8.967594e-06 1.340191e-05 -4.428452e-05 4.5698744e-06 3.1073316e-05 -1.9085178e-06 -3.573427e-07 -1.0274177e-05
6.755299e-06 6.0073162e-05 2.877491e-05 -6.6880675e-05 -3.3659322e-05 -2.0393592e-05 -3.7419608e-07 6e-45
-1.2777168e-05 4.5286843e-06 -1.402706e-05 -5.6389883e-05 2.8859427e-05 4.4434906e-05 -1.6976591e-06 1.2948108e-05
4.483605e-06 1.1588995e-05 -1.9059236e-05 2.9828629e-05 3.6772863e-06 -2.6988044e-05 -1.1373935e-06 -1.1575115e-05
1.4215716e-06 9.1349506e-07 1.1935698e-05 2.9096624e-05 -7.139519e-06 3.504896e-05 3.3259512e-23 2.195535e-05
-3.184254e-05 8.103294e-05 -8.178632e-05 -0.00016086211 4.4939734e-05 -1.0178704e-05 6e-45 -2.0886788e-05
6.642059e-06 6.957348e-06 1.7633422e-05 3.1976422e-05 2.57968e-05 1.1241985e-05 1.2375155e-07 7.3847916e-13
5.1485047e-05 4.6980414e-05 0.00019670247 -0.00014734155 -0.00022546975 -9.933168e-05 -1.448846e-06 7.9318215e-06
3.507408e-06 3.1403224e-06 1.0559564e-05 1.76769e-05 -8.0634436e-07 -3.9099814e-06 1.1227647e-07 6e-45
3.1138723e-05 4.2345688e-05 0.00013798011 -0.0001254048 -0.00017358044 -8.172932e-05 5.5022205e-08 0.0
-1.0531731e-05 -1.525312e-05 -4.3483557e-05 2.8033432e-05 3.0927833e-05 -1.1533941e-05 -6e-45 -1.3539648e-05
3.58871e-05 -7.5947564e-06 8.514665e-05 5.724984e-05 -8.0928316e-05 -2.5025267e-05 1.8976088e-07 -2.5959698e-06
-1.4362767e-05 -2.0904567e-06 -2.2102897e-05 -6.8518144e-05 2.6393844e-05 1.2993605e-05 1.3476474e-08 -6.9585135e-06
3.4289687e-06 3.7571913e-06 1.9122566e-05 6.216099e-06 -1.5617152e-05 1.2028042e-05 1.6297114e-06 1.5272282e-05
-5.472108e-06 4.9996777e-07 -5.6819777e-06 -5.19073e-07 1.08885115e-05 1.1666078e-05 -6e-45 8.285326e-06
-6.606927e-07 2.0949896e-07 -3.183719e-06 -2.6059267e-06 8.9190935e-06 -4.94102e-06 8.1846684e-07 3.3540118e-07
-1.4275219e-05 5.5678513e-05 -4.8348997e-05 -2.9587147e-05 4.9815695e-05 2.0841017e-05 2.8916114e-07 6.280699e-06
6e-45 6e-45 6e-45 -6e-45 -6e-45 -6e-45 -6e-45 0.0
-5.917994e-06 -2.8329164e-06 -2.2500823e-05 -1.9937823e-05 8.06672e-06 2.3029177e-05 -1.7499044e-06 6.7437056e-09
5.354289e-08 -9.7718775e-09 1.0048487e-06 6.8830195e-07 -2.2748886e-06 2.2520755e-06 -5.7444976e-07 0.0
-1.7711197e-06 4.5800403e-05 -1.7911363e-05 2.0613035e-05 2.6538732e-05 7.7874265e-06 1.0929439e-06 1.0025489e-06
8.2010716e-05 3.4080666e-05 0.000288331 -1.9704003e-05 -0.00030806905 -6.164487e-05 1.8048856e-06 1.6798467e-05
8.5153915e-06 0.00012567219 2.9262848e-05 -4.5240828e-05 -3.904919e-05 -3.8429574e-05 3.1226054e-06 -6e-45
2.649532e-06 3.7165748e-05 -6.375427e-06 -7.793111e-06 1.3625977e-06 -6.9140515e-07 -1.9662687e-08 0.0
1.1414419e-05 -2.250746e-06 5.5611657e-05 4.9682563e-05 -1.6006172e-05 1.2566779e-06 9.047638e-07 2.5760428e-06
-1.3377567e-05 0.000113644164 -4.6857404e-05 -6.073781e-05 6.863642e-05 3.3669767e-05 -5.2540014e-07 4.945898e-07
00000000: a1f1 97b6 256e 26b6 8d5e 24b8 0115 0b38
00000010: dc7c 3438 3e64 e037 dd49 5e36 7354 b036
00000020: 3063 03b9 3d4e f8b8 6961 d5b9 7df8 ca38
00000030: d86a 6139 201f b538 7a4a a834 0400 0000
00000040: 088b c7b6 3767 1738 cf88 4cb8 9c07 c737
00000050: 0e6b 6638 b4d8 dd37 1ffc a634 2c75 0eb4
00000060: 391c 88b7 c657 9137 30d9 17b8 1bc9 34b8
00000070: 122b bf37 145c f136 fd6c 0bb3 7ea1 fbb5
00000080: 6eb7 0137 0443 5836 4fb9 d436 36c2 9d36
00000090: 7aef 52b7 4d67 0cb8 0400 0000 9a4b 6fb7
000000a0: 0400 0080 0400 0080 0400 0000 0400 0080
000000b0: 0400 0000 0400 0080 0400 0000 0400 0000
000000c0: 8673 16b7 c4d8 6037 24be 39b8 ec56 9936
000000d0: b854 0238 1614 00b6 cfd8 bfb4 415f 2cb7
000000e0: 94ab e236 11f7 7b38 a661 f137 4a42 8cb8
000000f0: 6c2d 0db8 e812 abb7 1ee5 c8b4 0400 0000
00000100: 855d 56b7 1af5 9736 c455 6bb7 2d84 6cb8
00000110: 2617 f237 9e5f 3a38 1fdb e3b5 b33b 5937
00000120: e071 9636 5b6e 4237 66e1 9fb7 7e38 fa37
00000130: 4cc7 7636 6264 e2b7 8ba8 98b5 be32 42b7
00000140: d4cc be35 e736 7535 6f3f 4837 8614 f437
00000150: 0090 efb6 8901 1338 48d5 201a c12c b837
00000160: ab8e 05b8 3af0 a938 b284 abb8 18ad 28b9
00000170: ac7d 3c38 33c5 2ab7 0400 0000 0936 afb7
00000180: dade de36 2a73 e936 7ceb 9337 6c1e 0638
00000190: 3566 d837 f59b 3c37 91e0 0434 08dd 4f2b
000001a0: a6f1 5738 d60c 4538 eb41 4e39 b27f 1ab9
000001b0: 136c 6cb9 4a50 d0b8 f875 c2b5 ea12 0537
000001c0: d060 6b36 54be 5236 fb28 3137 db48 9437
000001d0: 9073 58b5 7c32 83b6 a41c f133 0400 0000
000001e0: f39a 0238 569c 3138 c1ae 1039 187f 03b9
000001f0: 2503 36b9 1866 abb8 8e51 6c33 0000 0000
00000200: 71b1 30b7 a7e7 7fb7 1d62 36b8 5629 eb37
00000210: 82b8 0138 e681 41b7 0400 0080 5828 63b7
00000220: 7b85 1638 76d6 feb6 c290 b238 8c1f 7038
00000230: 0fb8 a9b8 5aed d1b7 13c1 4b34 6c36 2eb6
00000240: 9df7 70b7 c649 0cb6 9c69 b9b7 66b1 8fb8
00000250: 5968 dd37 1cff 5937 2986 6732 2d7d e9b6
00000260: 3c1d 6636 0e24 7c36 6669 a037 e293 d036
00000270: 9401 83b7 0ccc 4937 75bc da35 fa1c 8037
00000280: 0d9d b7b6 8635 0635 d1a7 beb6 6d56 0bb5
00000290: cdad 3637 6cb9 4337 0400 0080 3401 0b37
000002a0: 755a 31b5 a3f2 6034 e0a7 55b6 7be1 2eb6
000002b0: 37a3 1537 0acb a5b6 9db4 5b35 3011 b434
000002c0: 997f 6fb7 5988 6938 57ca 4ab8 ea31 f8b7
000002d0: 32f1 5038 bed3 ae37 013e 9b34 cbbe d236
000002e0: 0400 0000 0400 0000 0400 0000 0400 0080
000002f0: 0400 0080 0400 0080 0400 0080 0000 0000
00000300: 2e93 c6b6 221d 3eb6 26c0 bcb7 2640 a7b7
00000310: 4c56 0737 c82e c137 42de eab5 43b6 e731
00000320: 08f7 6533 2ce1 27b2 57de 8635 c0c3 3835
00000330: 4aaa 18b6 5d22 1736 e333 1ab5 0000 0000
00000340: 36b7 edb5 cf19 4038 5c40 96b7 28ea ac37
00000350: 7e9f de37 bea6 0237 44b1 9235 518f 8635
00000360: 2bfd ab38 d6f1 0e38 222b 9739 064a a5b7
00000370: 5484 a1b9 5647 81b8 663f f235 6fea 8c37
00000380: 54dd 0e37 dfc6 0339 7d79 f537 f8c0 3db8
00000390: c0c8 23b8 712f 21b8 f48d 5136 0400 0080
000003a0: 9dce 3136 6be2 1b38 80ec d5b6 28bf 02b7
000003b0: 80e2 b635 0099 39b5 b5e6 a8b2 0000 0000
000003c0: 8e80 3f37 860b 17b6 9040 6938 3f62 5038
000003d0: fe44 86b7 20ab a835 e5de 7235 14e0 2c36
000003e0: 3670 60b7 3f54 ee38 c188 44b8 bac0 7eb8
000003f0: e6f0 8f38 a338 0d38 3909 0db5 f4c3 0435

exp_avg_sq f4 [32, 8]
9.436935e-08 7.0492284e-08 8.8269326e-07 6.488605e-07 1.2599919e-06 3.252834e-07 6.8499517e-09 7.858427e-10
3.9439317e-07 2.8821339e-07 4.0749896e-06 7.408927e-07 2.1125506e-06 3.3146114e-07 2.7456142e-09 4.4102735e-11
8.45663e-08 1.3156559e-07 8.385347e-07 5.3884827e-07 9.879606e-07 2.1363222e-07 1.0051309e-09 2.1993032e-09
5.0192757e-09 3.5650503e-09 3.3048693e-08 3.1936324e-08 4.4428745e-08 9.370573e-09 3.8161047e-10 2.6247158e-09
1.42059e-09 1.02379e-09 5.0138422e-09 2.784481e-09 5.0043965e-09 2.1809246e-08 8.1856333e-10 2.3836484e-09
3.3199099e-12 5.917543e-14 1.6263187e-11 6.215745e-12 1.2754276e-11 1.7074632e-10 1.0471409e-12 1.4298939e-17
1.1368729e-08 1.2644604e-08 8.542206e-08 1.09769985e-07 1.6284834e-07 3.7172317e-08 4.2224269e-10 4.3374646e-09
2.9722374e-08 1.1134126e-07 2.8530795e-07 1.566463e-07 2.5124757e-07 8.2258346e-08 1.1856647e-09 1.3514508e-10
2.6178322e-08 3.7168526e-08 2.5281412e-07 1.2305661e-07 2.366387e-07 8.19116e-08 1.8890398e-09 4.5731907e-09
1.2907329e-08 1.8858827e-08 4.6741594e-08 6.3299794e-08 9.964154e-08 3.222419e-08 3.3042055e-10 3.503244e-09
1.1575065e-08 4.0739043e-09 2.9451737e-08 4.648314e-08 4.4412296e-08 1.9820364e-08 8.472819e-10 1.3085847e-08
1.9669427e-08 5.3282896e-08 5.898888e-08 1.3165898e-07 5.6615388e-08 4.3940947e-08 1.3348173e-10 2.9601225e-08
2.4292207e-08 3.156638e-08 2.1943703e-07 1.530233e-07 2.603738e-07 5.786361e-08 8.9561686e-10 8.822425e-10
1.881762e-07 6.3629486e-08 1.6431576e-06 1.3549392e-06 2.4698354e-06 4.7878785e-07 6.871407e-09 6.0962737e-09
1.8574967e-09 1.4132422e-09 1.4516543e-08 1.732197e-08 2.7859032e-08 1.2483657e-08 7.0601724e-10 8.4110507e-13
1.15143635e-07 3.724745e-08 1.022103e-06 6.7117935e-07 1.3552617e-06 2.4138717e-07 3.2625924e-10 0.0
9.1517345e-09 4.9118762e-09 7.3514016e-08 3.3347696e-08 7.658977e-08 2.2920423e-08 1.8133502e-10 2.2427549e-09
2.9086943e-08 9.734637e-09 1.953649e-07 3.3516775e-07 3.661068e-07 9.091038e-08 4.0237342e-09 6.228911e-09
5.2852362e-09 5.6588902e-09 1.5732876e-08 3.481497e-08 1.6225071e-08 6.7925985e-09 4.948799e-10 6.917733e-09
1.0095633e-08 6.639406e-09 6.9177005e-08 7.2587994e-08 7.418159e-08 2.1754706e-08 1.231435e-09 9.724896e-09
1.7979848e-09 3.204926e-09 6.2360344e-09 1.0188633e-08 6.7889903e-09 3.0958613e-09 4.239982e-10 1.1872368e-09
1.9550024e-09 3.1851272e-10 7.2579813e-09 1.383963e-08 2.4789232e-08 5.569993e-08 2.6659084e-09 2.21025e-09
3.75736e-08 7.6614675e-08 3.5817612e-07 2.4067307e-07 4.375635e-07 1.0498258e-07 1.425952e-09 6.0347144e-10
1.0576994e-10 6.5061073e-10 1.0019543e-09 1.1537468e-10 3.9009757e-10 6.828855e-11 8.087791e-14 0.0
5.5656852e-09 4.7677533e-09 4.426932e-08 3.492836e-08 5.680767e-08 2.2370237e-08 9.0626606e-10 1.6928219e-09
4.6315025e-11 2.0373106e-12 4.336472e-10 2.3503544e-10 3.8128816e-09 6.549147e-09 6.469157e-11 0.0
4.6882732e-08 1.2277812e-07 4.7461245e-07 2.7953604e-07 5.3134136e-07 1.2260767e-07 1.4767725e-09 2.9110964e-10
5.732539e-07 1.6246737e-07 5.0173476e-06 3.3120227e-06 5.969449e-06 9.759776e-07 1.1623441e-08 4.30211e-08
2.7792364e-08 1.688622e-07 2.7830097e-07 1.8460156e-07 2.8676718e-07 1.0510934e-07 3.255988e-09 7.45769e-11
1.5437422e-08 3.3019493e-08 1.5740399e-07 8.2147295e-08 1.6741308e-07 4.06054e-08 4.946058e-10 0.0
3.1150062e-08 7.873775e-09 2.0901199e-07 6.10164e-07 8.2594147e-07 2.396031e-07 4.6620707e-09 2.4851788e-08
1.4342012e-07 3.957302e-07 1.444119e-06 7.245123e-07 1.3811165e-06 3.41673e-07 9.277992e-10 5.1850135e-10
00000000: 19a8 ca33 8b61 9733 38f2 6c35 5b2d 2e35
00000010: fe1c a935 9ca2 ae34 d05c eb31 c402 5830
00000020: fcbc d334 bfbb 9a34 e5bb 8836 c2e1 4635
00000030: 58c5 0d36 acf3 b134 5bad 3c31 44f7 412e
00000040: d19a b533 7944 0d34 aa17 6135 5fa5 1035
00000050: 119a 8435 c762 6534 e624 8a30 8d22 1731
00000060: 0476 ac31 07fd 7431 6cf1 0d33 5c2a 0933
00000070: ecd1 3e33 37fc 2032 e6ca d12f 7d5e 3431
00000080: 913e c330 69b5 8c30 3946 ac31 1c59 3f31
00000090: 23f3 ab31 0a57 bb32 4601 6130 96cd 2331
000000a0: 2e9e 692c 5040 8529 710d 8f2d 74b2 da2c
000000b0: 2760 602d d1bc 3b2f 3a5f 932b 6ae2 8323
000000c0: 3350 4332 8e3b 5932 4671 b733 b0ba eb33
000000d0: 69db 2e34 65a7 1f33 6021 e82f be08 9531
000000e0: 3150 ff32 811a ef33 6d2c 9934 9b32 2834
000000f0: 34e3 8634 01a6 b033 def4 a230 f597 142f
00000100: bdde e032 3aa3 1f33 82ba 8734 8b21 0434
00000110: c016 7e34 61e7 af33 57d0 0131 3622 9d31
00000120: 09bf 5d32 00ff a132 edc0 4833 6eef 8733
00000130: 84fa d533 df66 0a33 8fa6 b52f b8bd 7031
00000140: addb 4632 71fa 8b31 0efd fc32 c1a4 4733
00000150: d6bf 3e33 7141 aa32 2ae6 6830 2ad0 6032
00000160: 87f5 a832 2ad9 6433 f65a 7d33 255e 0d34
00000170: 4729 7333 95b9 3c33 c4c3 122f c845 fe32
00000180: 21ab d032 9a93 0733 649e 6b34 b94e 2434
00000190: 81c9 8b34 b685 7833 6f2f 7630 4c82 7230
000001a0: 7b0d 4a34 aea4 8833 778a dc35 5bdb b535
000001b0: 73bf 2536 0d86 0035 8919 ec31 6477 d131
000001c0: db4a ff30 0a3c c230 6e64 7932 6acb 9432
000001d0: a94e ef32 b477 5632 8c11 4230 02c0 6c2b
000001e0: e244 f733 01fa 1f33 312f 8935 182b 3435
000001f0: 70e6 b535 0098 8134 e85c b32f 0000 0000
00000200: c139 1d32 52c5 a831 c2de 9d33 2e3a 0f33
00000210: ac79 a433 8be2 c432 4561 472f f61e 1a31
00000220: ddda f932 633d 2732 7fc5 5134 1bf1 b334
00000230: 568d c434 833a c333 2441 8a31 1506 d631
00000240: 6e99 b531 2070 c231 f624 8732 7787 1533
00000250: 4f5f 8b32 5464 e931 1408 0830 06b1 ed31
00000260: 1071 2d32 d520 e431 768e 9433 ace1 9b33
00000270: c34d 9f33 1bdf ba32 443f a930 8c12 2732
00000280: f71c f730 a83d 5c31 bd44 d631 150a 2f32
00000290: 9744 e931 f8be 5431 7118 e92f 2e2c a330
000002a0: c458 0631 ae1a af2f e161 f931 56c3 6d32
000002b0: 19f0 d432 b83a 6f33 2833 3731 21e3 1731
000002c0: 9c60 2133 5d87 a433 5a4b c034 db35 8134
000002d0: 45ea ea34 c972 e133 3afb c330 87e1 2530
000002e0: 2f97 e82e a9d6 3230 22b5 8930 2cb6 fd2e
000002f0: 5a75 d62f 092b 962e f11e b629 0000 0000
00000300: 493c bf31 9ad1 a331 a222 3e33 2304 1633
00000310: b2fc 7333 ac28 c032 ce1c 7930 e0a8 e830
00000320: 15b2 4b2e ed5c 0f2c 6b66 ee2f 4c36 812f
00000330: 7602 8331 e806 e131 1e42 8e2e 0000 0000
00000340: 1c5c 4933 fed4 0334 3dce fe34 2413 9634
00000350: 80a1 0e35 24a6 0334 50f7 ca30 0a0a a02f
00000360: b5e1 1935 b172 2e34 b05a a836 1e44 5e36
00000370: 2d4d c836 56fe 8235 6fb0 4732 33c6 3833
00000380: 0ebc ee32 7d50 3534 6569 9534 e436 4634
00000390: fbf4 9934 79b8 e133 f2bf 5f31 10ff a32e
000003a0: 409b 8432 51d1 0d33 e102 2934 f468 b033
000003b0: 28c2 3334 1c66 2e33 caf4 0730 0000 0000
000003c0: dbc9 0533 3b45 0732 c76c 6034 27ca 2335
000003d0: 44b6 5d35 cda2 8034 0230 a031 a979 d532
000003e0: 06ff 1934 bf74 d434 8dd3 c135 1b7c 4235
000003f0: cd5e b935 2e6f b734 1108 7f30 4a86 0e30

exp_avg f4 [32]
-1.2606546e-05 -0.00010783588 1.2047754e-05 3.738464e-05 -1.0724745e-05 6e-45 2.304414e-06 6.835527e-05
4.257274e-05 -1.6877664e-05 -4.596161e-06 0.00012228124 -1.2634733e-05 9.350014e-05 -7.7409095e-06 8.110817e-05
-2.7636343e-05 -3.837842e-05 3.489942e-05 6.3323064e-06 9.0515905e-06 -4.783609e-07 5.0842667e-05 6e-45
7.5069424e-06 9.453229e-09 2.3203433e-05 3.839422e-05 9.987122e-05 2.7530697e-05 -3.512881e-05 0.00010343337
00000000: b480 53b7 f225 e2b8 b620 4a37 74cd 1c38
00000010: 6eee 33b7 0400 0000 88a5 1a36 f559 8f38
00000020: 2290 3238 8294 8db7 b938 9ab6 9f38 0039
00000030: c4f9 53b7 8115 c438 f4de 01b7 9e18 aa38
00000040: 98d4 e7b7 84f8 20b8 f860 1238 197a d436
00000050: 49dc 1737 b668 00b5 e63f 5538 0400 0000
00000060: 25e4 fb36 be67 2232 fea4 c237 7b09 2138
00000070: f471 d138 b9f1 e637 4657 13b8 5eea d838

exp_avg_sq f4 [32]
2.5723037e-07 4.4044685e-07 2.7237587e-07 1.3176113e-08 5.054032e-09 9.783956e-12 4.7942024e-08 1.3758009e-07
7.147681e-08 3.7922614e-08 2.3430623e-08 9.185937e-08 7.843511e-08 4.3924234e-07 7.463607e-09 2.110739e-07
1.4394118e-08 1.3433208e-07 1.6630775e-08 3.1319683e-08 5.1019367e-09 7.968955e-09 1.3538205e-07 2.3772245e-10
1.4058062e-08 5.1639454e-10 1.8005056e-07 1.1032721e-06 1.8252939e-07 5.1289245e-08 2.0293085e-07 5.3336316e-07
00000000: 7919 8a34 8e76 ec34 0e3b 9234 285d 6232
00000010: bca7 ad31 051f 2c2d d0e8 4d33 bab9 1334
00000020: cb7e 9933 5be0 2233 7c44 c932 3944 c533
00000030: 2870 a833 02d1 eb34 4a39 0032 8da3 6234
00000040: 004a 7732 ec3c 1034 76db 8e32 5b84 0633
00000050: 1c4d af31 d6e7 0832 895d 1134 76b0 822f
00000060: 0384 7132 09f2 0d30 ec53 4134 2414 9435
00000070: 4cfd 4334 1f49 5c33 35e5 5934 702c 0f35
